data.pth (torch, 9770 bytes, 6 tensors)

l1.weight f4 [8, 112]
000000 a6 c7 ab 3f d3 5c 0c 3f 0e 3f 12 be d9 db 95 bd
       1.3420303 0.5482914 -0.14281866 -0.07317323
000010 69 a2 97 be 6c d8 14 be f2 d1 96 be 49 ee 9e 40
       -0.29616097 -0.14535683 -0.2945705 4.9665875
000020 3e 93 2d bf ac 03 b8 40 fc ac 25 40 40 cb 6b 40
       -0.678028 5.750448 2.5886831 3.6842804
000030 0b e4 58 c0 12 3a d0 bd d4 4d c6 bc 74 86 a6 bc
       -3.3889186 -0.10167326 -0.024207033 -0.020327784
000040 34 f8 07 be af 65 52 be 10 b6 ab be cc a1 fa 3f
       -0.13278276 -0.20546602 -0.3353734 1.9580626
000050 62 77 02 be fa c2 8e be ca 14 9d 3f 6d d8 48 40
       -0.12740853 -0.2788313 1.2271969 3.1382096
000060 6f e8 a7 3f 34 7f 19 bf 32 5f 2a 3f fd ae 0e c0
       1.3117808 -0.5995972 0.66551507 -2.2294304
000070 8b d2 ab 3d 39 65 ee 3e 01 fd c3 40 cf 34 0a be
       0.08389767 0.46561602 6.1246343 -0.13496707
000080 98 84 92 40 f9 6a a8 bd 5d 4b 08 3f a8 15 66 be
       4.5786858 -0.082235284 0.53239995 -0.22469199
000090 db 71 aa 40 ce cd 3d be 80 20 95 40 8a 47 c7 40
       5.3263984 -0.1853554 4.6602173 6.227483
0000a0 f0 47 81 40 77 4a c3 3f e2 15 ac 40 86 33 18 c0
       4.0400314 1.52571 5.3776712 -2.3781447
0000b0 46 c9 1b c0 36 3a a4 40 15 18 36 40 a0 8f 17 40
       -2.4341598 5.132106 2.8452199 2.3681412
0000c0 8d b3 3c 40 87 a7 b8 3e 02 f1 17 3f 47 16 90 3e
       2.948459 0.36065313 0.59352124 0.28141996
0000d0 f6 20 17 3d 98 b3 23 be 7f 87 61 40 bb c3 1a 40
       0.03689667 -0.15986478 3.523895 2.4181964
0000e0 fb d6 e6 3f d5 50 f9 3f bb 16 98 be 7d 48 c6 bc
       1.8034357 1.9477793 -0.29704842 -0.024204487
0000f0 01 f3 6a 40 2c 1f c2 3f 51 b6 6b 40 ec 39 b2 3b
       3.6710818 1.5165763 3.6830027 0.0054390337
000100 68 30 a0 3f 3f 2e 0e 40 c2 2f 18 3f bb bd c0 3e
       1.2514772 2.2215726 0.5944787 0.37644753
000110 bb 9e a6 be e8 75 5a bd 5a 13 97 3e 84 32 1e be
       -0.32542977 -0.0533351 0.29506952 -0.15448958
000120 ab 53 ab 3e 53 27 d1 be 5c 26 38 40 52 72 8d be
       0.3346227 -0.40850314 2.8773413 -0.27626282
000130 5b 20 e9 be 12 00 93 be e4 98 8e be 13 61 91 be
       -0.45532498 -0.2871099 -0.2785102 -0.28394374
000140 86 43 93 be b8 48 e6 3f 09 4e cc 3f 0a 6a 4f 3c
       -0.28762454 1.7990942 1.5961314 0.012659559
000150 a9 ef 85 be 12 e2 98 40 aa 26 ae 40 94 5d 8a be
       -0.2615941 4.7775965 5.4422197 -0.2702452
000160 d2 a3 40 3f fe a7 a9 3f 9e e8 15 40 24 24 a0 40
       0.7524997 1.3254392 2.3423228 5.0044117
000170 1a 43 5d 40 47 4f 0a 40 83 fd 42 40 e4 f9 0f be
       3.4572206 2.1610887 3.0467231 -0.1406017
000180 8a 74 ab 40 a9 39 a9 be 57 47 8f be 7b e8 f5 3e
       5.357976 -0.33051804 -0.27984115 0.4802893
000190 41 50 b2 bf 30 09 30 3f 39 94 a6 3e 92 7b c6 bc
       -1.3930742 0.6876402 0.3253496 -0.024228845
0001a0 b2 d2 a0 bf 55 bc 02 3e 9b 27 cf be 57 ac 5c be
       -1.2564299 0.12767155 -0.40459904 -0.21550117
0001b0 0b ec d8 3e 02 b7 90 be 21 31 2a bd 60 f3 9c 3e
       0.42367586 -0.28264624 -0.04155076 0.3065443
0001c0 9f 1d 8a 3f 9c 6b df 3f b1 19 e2 3d 76 0b df 3e
       1.079029 1.7454715 0.110400565 0.43563432
0001d0 50 c2 9c 3d a8 ba 37 3e 27 3a 0d 40 d0 ff 86 3f
       0.0765425 0.17942297 2.2066743 1.0546818
0001e0 75 34 84 40 a1 ba 5d 40 2f d6 97 3f 67 f6 d5 3e
       4.1314034 3.464516 1.1862239 0.41789553
0001f0 1a b3 4d c0 5c 51 47 3e f0 89 fd 3f 58 0b f0 3d
       -3.2140565 0.1946463 1.980772 0.11720914
000200 7b 04 be bf ea d6 65 3e c1 da 52 40 64 2e b1 40
       -1.4845117 0.22445264 3.2946017 5.536913
000210 f5 26 13 40 5d 39 09 40 c1 c1 83 3f 10 61 e7 be
       2.2992527 2.1441262 1.0293504 -0.4519124
000220 43 1b 03 40 1b b3 aa bf 11 58 ce be da 2f 0d c0
       2.048539 -1.3335909 -0.40301564 -2.2060456
000230 44 cd c5 be 0c 63 0d 3f 4e c8 81 40 79 68 a0 3f
       -0.38633168 0.5522926 4.0557013 1.2531883
000240 22 b4 3a 40 ca 88 12 3e bd 72 9e 3f 87 84 5c 3f
       2.9172444 0.14309993 1.2378765 0.8613972
000250 a1 2f 4f 40 37 73 cf 3d 37 23 4f 3e ab 34 85 40
       3.237282 0.10129397 0.20228277 4.162679
000260 76 98 06 40 fc 61 0d 40 91 fc 57 40 90 61 ba 3f
       2.1030555 2.2091055 3.3747904 1.4561024
000270 4e 28 0a 40 f8 36 a9 3f aa 75 15 40 1f c0 ce 3f
       2.15871 1.32199 2.3353066 1.6152381
000280 97 82 20 c0 35 ed f4 3e dd a5 8e bd dc 70 a8 3f
       -2.5079706 0.47837225 -0.0696523 1.3159442
000290 7b 45 e5 3f ea ee 13 3f 0b c6 13 bf 92 c5 69 3f
       1.7911829 0.5778643 -0.57724065 0.91317093
0002a0 c7 09 3d 3e ff a1 17 3f 79 3c 02 40 76 a6 97 3e
       0.18460761 0.5923156 2.034941 0.29619187
0002b0 01 2b 31 40 6e f5 b8 bc 22 9a 30 40 5f 35 31 3f
       2.7682498 -0.022577967 2.7594075 0.6922206
0002c0 24 0c b5 3f 53 d8 b7 3f 56 4b 32 3f 3f 6e 20 bf
       1.414433 1.4362892 0.69646204 -0.6266822
0002d0 34 09 ca be 56 a3 83 3e 4c ec 9f 3e 95 7d fc 3d
       -0.39460146 0.25710553 0.31234968 0.1232864
0002e0 a8 e4 ea 3f 18 b8 6c 3f 3f 18 0f 40 7d d5 95 3e
       1.835103 0.92468405 2.2358549 0.2926444
0002f0 aa 2b 7e 3e 8e 96 af 3e 85 f3 6e 3e 09 9a 5b 3e
       0.24821344 0.34294552 0.23335083 0.21445478
000300 73 ae 57 3e 8a 0f 51 bd c2 28 f0 3e 80 97 f2 3e
       0.21062641 -0.05104021 0.46906096 0.4738121
000310 68 bd 1b 40 38 3b b2 bf 18 88 28 40 51 52 0c 40
       2.4334354 -1.3924322 2.6333065 2.1925242
000320 a9 70 fc 3f 7d 42 81 3f c5 df d2 3f 1e d2 78 3f
       1.9721881 1.0098416 1.6474539 0.97195613
000330 3f 9c aa 3f 28 a2 43 3f ed e2 02 bf eb 7d 71 3f
       1.3328933 0.76419306 -0.5112751 0.9433276
000340 62 46 95 40 3f d8 eb 3f fb 97 0a 40 02 1a e5 3e
       4.6648417 1.8425368 2.1655262 0.44746405
000350 72 9c 3c c0 68 4a 16 3f 7e de 4e 3e 02 ac 54 3d
       -2.9470487 0.58707285 0.20202062 0.051921852
000360 d0 61 ef be 94 37 2b 40 23 6c 08 40 e1 13 98 3e
       -0.46754313 2.6752672 2.1316001 0.29702666
000370 41 94 bb 3e 4d 3e 07 40 79 af eb 3f d5 2d c2 3e
       0.36636546 2.1131775 1.8412925 0.37925592
000380 d8 76 38 bf 7e ba c7 3d 6b 46 81 3f 66 9d dd 3e
       -0.7205634 0.097523674 1.0099615 0.43284148
000390 8d ae d5 3e 6e e9 69 3f 74 4c a5 3f ae be a3 3f
       0.41734734 0.9137181 1.2913957 1.2792566
0003a0 03 e1 10 be 28 31 9f 40 c9 69 a5 3f 0d 48 8c 3f
       -0.14148335 4.9747505 1.2922908 1.0959488
0003b0 cc 44 56 40 7a ab 83 3f 68 30 92 40 89 4f e3 3e
       3.347949 1.0286705 4.568409 0.44396618
0003c0 c0 64 33 3f d9 52 65 3f e2 a0 86 3f de b7 99 40
       0.7007561 0.8957954 1.0517848 4.8036947
0003d0 7d dc 8e 40 d0 49 82 3f c4 85 1c bf 29 d0 84 3f
       4.464415 1.0178776 -0.6114161 1.0376025
0003e0 10 fc 8a bf c0 5c 25 40 91 ac f0 be cf 53 3b 3f
       -1.0858173 2.583786 -0.47006658 0.73174757
0003f0 b3 0b 68 3d 29 25 11 be 33 b4 a6 40 38 c8 e1 bb
       0.056651782 -0.14174332 5.209497 -0.006890323

l1.bias f4 [8]
000000 9f 7d de bd d8 64 1c 3f 4c 0e 26 3f c0 6c 6d 3f
       -0.10863804 0.61091375 0.64865565 0.92744064
000010 46 d9 4d 3f 0d 17 7e 3f 93 6a f2 3e bb 0d d0 3e
       0.8040966 0.9925392 0.47346935 0.40635476

l2.weight f4 [8, 8]
000000 0d ca a1 bf 73 f8 7e be 31 99 a9 bc d9 21 a2 3f
       -1.2639786 -0.24899463 -0.02070293 1.266658
000010 1a 23 42 bf 7a b2 0d 40 b9 53 81 3f d3 31 ae 3f
       -0.7583481 2.2140183 1.0103675 1.3608955
000020 f7 6d 90 3f 2c 17 93 3c 93 7c 23 3e 9d 93 cd bf
       1.1283559 0.017955385 0.1596549 -1.6060673
000030 fd 00 b8 be 9b e8 09 3f 54 98 5e 3f 90 a5 17 40
       -0.35938254 0.5387055 0.86951184 2.3694801
000040 72 8b e6 3f 49 b0 c7 3f ca a8 b6 bf 71 24 0f 3f
       1.8011305 1.5600673 -1.427026 0.5591498
000050 dd 77 a6 3f 1c 59 83 be 7e 12 fd 3f 1f 4b 1d bf
       1.3005329 -0.25653923 1.9771268 -0.6144275
000060 e8 2a 14 be 4c 22 bc bf 94 79 c3 3f 76 8f 97 3f
       -0.14469492 -1.4697967 1.5271478 1.1840656
000070 d6 5c 82 3f 94 75 aa 3e 89 a3 47 bf 7f f9 b5 3f
       1.0184581 0.3329283 -0.7798391 1.4216765
000080 7f ac 3d bf 23 e3 01 40 16 d8 7d 3f 05 88 01 c0
       -0.74091333 2.0294883 0.99157846 -2.023927
000090 5a e0 51 3f 69 bf 84 3f e8 dd 1a be 0d 47 62 bf
       0.8198296 1.0370914 -0.15123713 -0.88389665
0000a0 90 22 c9 3f f1 6b ce bd 62 98 53 3f c4 c1 2c bf
       1.5713673 -0.10079182 0.8265439 -0.6748316
0000b0 b5 d8 52 bf 00 02 c6 3f d7 d5 07 bf f2 17 30 bf
       -0.8236192 1.546936 -0.5306067 -0.6878654
0000c0 d0 ef f8 3e 40 bf 84 3f bf d4 ae 3f 9a 53 81 3f
       0.48620462 1.0370865 1.3658675 1.0103638
0000d0 c2 0c 9c 3f 6d e3 d0 bf 34 df a8 bf 49 ef d6 3f
       1.2191393 -1.6319405 -1.3193116 1.6791774
0000e0 11 8a 42 3f 5d 9f d3 3e e8 1b 74 3f f4 26 61 be
       0.7599192 0.41332522 0.9535508 -0.21987516
0000f0 50 f3 a9 bf dd fd ba be 9a c3 07 40 24 31 46 3f
       -1.3277378 -0.36521807 2.1213136 0.7741873

l2.bias f4 [8]
000000 45 a6 96 3f af 23 b2 be 86 bd 01 bf 87 ab d8 3e
       1.1769491 -0.3479285 -0.50679815 0.42318365
000010 e1 03 26 3f ab 50 98 3e bf ad 30 3e 77 a3 3a 3e
       0.6484967 0.29749045 0.17253779 0.1822642

l3.weight f4 [35, 8]
000000 ee 9f 85 bf 66 ac 0b 3f fe 80 fd be 52 b2 ed be
       -1.0439432 0.54559934 -0.49512476 -0.4642511
000010 be a6 89 c0 c1 92 47 3e 80 cb b9 bf 3b f8 c6 3e
       -4.3016043 0.19489576 -1.4515228 0.3886126
000020 87 84 8a 3e 2d c5 d2 3f 6b e2 e5 bf 23 88 d7 be
       0.27054235 1.6466423 -1.7959722 -0.42096052
000030 e4 0b 15 c0 38 9e bd 3e 6c f7 6a c0 2d 4b f4 3e
       -2.3288507 0.37034774 -3.6713514 0.47713605
000040 8a 33 27 bf fd 07 a7 c0 6d e2 91 c0 dc a1 25 3f
       -0.6531302 -5.219725 -4.55889 0.647001
000050 ea e5 83 c0 22 f5 16 c0 4f a2 d9 3f 54 4b ec bd
       -4.1218157 -2.3587117 1.7002658 -0.11537805
000060 53 e0 22 3f d7 45 50 c0 4f a8 84 3f bf 83 3c c0
       0.6362354 -3.2542627 1.0363864 -2.9455411
000070 3d 35 29 3f 58 88 21 3f 42 87 97 c0 04 1f 19 c0
       0.6609686 0.6309867 -4.735261 -2.392518
000080 e1 3c 90 be f7 cb 84 3f 80 3b a0 c0 25 7a af bf
       -0.28171447 1.0374745 -5.007263 -1.370915
000090 6d e4 50 3f d2 d0 33 be 81 af 44 bf 4b 59 22 3f
       0.8159855 -0.17560127 -0.768303 0.634175
0000a0 26 23 ad bf 64 24 2f 3f 4f 95 a9 bf 14 d9 2e bf
       -1.3526351 0.684149 -1.324869 -0.68299985
0000b0 05 92 ad bd 6f c6 31 c0 73 05 83 bf c2 51 87 3f
       -0.08475117 -2.7777364 -1.0236038 1.0571826
0000c0 36 c3 8c bf af 9a ab bf 39 37 c7 bf 00 c2 02 c0
       -1.0997074 -1.3406581 -1.5563728 -2.0430908
0000d0 bf b5 47 3f 76 4b f0 be 6f 6c a4 bf ef 2a 97 3f
       0.780117 -0.46932572 -1.2845591 1.1809977
0000e0 1a 42 22 c0 7f d2 b3 bf b8 dd 4f c0 19 a0 30 bf
       -2.5352845 -1.4048613 -3.2479076 -0.6899429
0000f0 8a 9c bf 3f de d9 d1 bd 46 11 3d 3e 67 73 18 3f
       1.4969647 -0.10246633 0.1846362 0.5955109
000100 bb 38 9a 3e 84 d4 31 bd 35 83 92 c0 8e 66 38 bd
       0.30121407 -0.04341556 -4.5785165 -0.04501968
000110 c4 45 c4 be c1 4a d6 3f 1c e0 9a c0 7a cd 16 40
       -0.38334477 1.6741563 -4.839857 2.3562913
000120 c5 e4 04 bf bb 92 b6 3f a4 49 97 c0 eb 61 27 3f
       -0.51911575 1.4263529 -4.7277393 0.65383786
000130 c5 99 ed 3f a3 85 e6 3f b3 27 7c c0 f5 2f a4 bf
       1.8562552 1.8009533 -3.939923 -1.2827135
000140 19 14 32 3f 74 5d ec be dd f4 03 bf 2e 79 93 bd
       0.69561917 -0.4616505 -0.51545507 -0.072008476
000150 78 a1 c2 bd 75 cb 10 bf 90 b4 12 3e ac a8 90 bf
       -0.09503454 -0.5656045 0.14326692 -1.1301475
000160 95 8f 06 bf 87 0a 4d be e6 7e 92 3e a5 89 ef be
       -0.5256284 -0.20023547 0.2861244 -0.46784702
000170 ac e8 2f c0 88 09 b6 3f c7 db 84 c0 2d 4f 2c 3e
       -2.7485762 1.4221659 -4.1518283 0.16827078
000180 cb a6 bf c0 9a 57 ba bf 5a 41 9f bf 01 5c 14 c0
       -5.9891105 -1.4557984 -1.2441819 -2.3181155
000190 61 aa 51 3e 9d 80 21 be 61 fe 13 3e bf 96 f8 3e
       0.2047515 -0.15771718 0.14452507 0.4855251
0001a0 36 f9 80 c0 3f fc 06 c0 87 b4 17 c0 34 72 c3 3f
       -4.0304213 -2.1091459 -2.3703935 1.5269227
0001b0 ea 75 0a bf 29 4a a9 bf e4 97 91 3f 98 10 81 bf
       -0.5408617 -1.3225757 1.1374478 -1.0083189
0001c0 df 38 47 c0 2c 05 0c c0 90 e0 c1 bd 77 a7 9a be
       -3.1128461 -2.1878157 -0.0946666 -0.3020589
0001d0 9c dc ae c0 96 f1 0b 40 81 8f 47 3b e9 30 8e be
       -5.46443 2.1866202 0.0030450525 -0.2777169
0001e0 66 cf c0 bf 42 a1 e7 be 8a 71 d4 3e 54 3f 9b be
       -1.5063293 -0.45240217 0.41492873 -0.30321753
0001f0 0a 9c b2 3e 14 6e 93 be cc bf cf bd 8b b3 13 c0
       0.34884673 -0.2879492 -0.10144004 -2.3078334
000200 d6 6f b6 c0 be 12 c0 3f 88 55 d3 bf 69 ca f6 3e
       -5.701152 1.500572 -1.6510477 0.48201302
000210 08 b3 92 bf 7c dd 58 3f ce 4e 15 3d fb 84 43 c0
       -1.1460886 0.8471296 0.036452107 -3.0549915
000220 1a 00 46 c0 66 19 f3 bf 2c b8 c8 bd e6 1c c0 c0
       -3.0937562 -1.8992126 -0.09800753 -6.0035276
000230 4f 92 f4 3f b1 a8 1c c0 46 40 b6 3e a5 ee b9 bf
       1.910715 -2.447796 0.35595912 -1.4525954
000240 33 f1 9e bf 71 71 bf be b5 f7 d0 3e dc 06 18 bf
       -1.2417358 -0.37391236 0.40813985 -0.59385467
000250 cf 33 84 bd b4 a4 9c be ab 54 c8 3e 41 88 d7 c0
       -0.06455194 -0.3059441 0.39127097 -6.7353826
000260 e5 47 ab be 4a 2e f1 3f bb 81 ab bd 75 a9 31 bf
       -0.3345329 1.8842251 -0.083743535 -0.69399196
000270 44 64 75 c0 5f 04 eb bf 2e 3d 29 bf 1d 7d c5 bf
       -3.8342447 -1.8360709 -0.6610898 -1.5428807
000280 cf cb 94 3c df 15 6e c0 fd ec 58 bc 0c 69 86 3f
       0.01816359 -3.720085 -0.013240096 1.0500808
000290 d9 e0 ca c0 53 6c 92 c0 d8 5e e3 bd 3f f0 10 c0
       -6.339947 -4.575723 -0.111020744 -2.2646635
0002a0 b5 60 d1 bf 92 45 89 be 48 71 a7 bf 73 03 7a bf
       -1.6357638 -0.2681089 -1.3081446 -0.97661513
0002b0 3e 99 00 3f 05 66 e3 3f a1 c5 d4 bf 28 b2 d0 bf
       0.5023383 1.7765509 -1.6622812 -1.6304369
0002c0 d9 7a c6 bf cc 76 a8 be c0 fd 2f bf c4 c9 21 bf
       -1.550624 -0.32903135 -0.68746567 -0.63198495
0002d0 ac 44 59 c0 3d 01 fb bf 17 f1 5f 3e 32 83 9e 3f
       -3.3948164 -1.9609753 0.21869312 1.2383788
0002e0 e7 05 73 be de 6b 16 3f 57 ee 8c c0 1b 5b e4 3e
       -0.2373272 0.5875834 -4.404094 0.44600758
0002f0 5a bc 7b c0 13 58 8e 3f 07 15 19 bf 66 67 a0 3f
       -3.933371 1.1120628 -0.5979771 1.2531555
000300 c9 de fc bf 7c 3e fb 3c 58 2a 0b bf 44 8b 80 c0
       -1.9755489 0.030669443 -0.54361486 -4.017
000310 04 eb 63 be 1d d6 35 3f 56 75 5e c0 eb 51 61 3e
       -0.2225762 0.71029836 -3.4759116 0.22003905
000320 fe e7 80 bf e0 51 60 3e e0 51 a7 bf cd a4 c1 3e
       -1.0070798 0.21906233 -1.3071861 0.37821046
000330 b9 44 98 c0 f9 c4 55 3f 6f 2f 1b 3e a0 5e 09 bf
       -4.758389 0.8350368 0.15154813 -0.5366001
000340 be d8 1e c0 21 0b 29 3e 66 16 00 c0 e5 eb b1 bf
       -2.481979 0.16508152 -2.001367 -1.3900114
000350 90 2e d6 bf 75 32 15 3d e6 ff a3 3e f3 25 3c 3e
       -1.673296 0.036425073 0.32031173 0.18373851
000360 53 92 52 3f d7 81 d3 bf e7 ba b6 be a4 ec e9 3e
       0.82254523 -1.6523999 -0.3568947 0.45688355
000370 bb 63 9c bf 6d f3 a1 be 19 1d 2a bf 02 3d e9 3e
       -1.2217935 -0.31631032 -0.6645065 0.45554358
000380 f7 48 3f 3d f3 1d 8d 3f 32 65 0d bf b9 8e 12 c0
       0.046700444 1.1024765 -0.55232537 -2.289961
000390 cb ed b3 bf 25 c7 4c bf 3b bb b8 bf d5 58 04 bf
       -1.4056944 -0.7999137 -1.4432138 -0.51698047
0003a0 a2 e8 f7 bf 80 d8 1b c0 53 31 ae c0 14 99 73 3f
       -1.9367869 -2.435089 -5.443521 0.95155454
0003b0 64 d1 48 3f c7 7b 2e 40 5a ac 19 3e 0a b8 69 bf
       0.78444505 2.7263048 0.15007153 -0.91296446
0003c0 60 98 80 bf c5 2d f2 be 74 e5 0e 3f 61 b2 6c c0
       -1.0046501 -0.47300544 0.5581887 -3.6983874
0003d0 7f 86 0d bf 61 c5 86 bf dd e4 0b c0 70 18 02 bf
       -0.5528335 -1.0528985 -2.1858437 -0.5081854
0003e0 77 28 f3 bf 5b b1 4c 3e 01 2d ae 3d 03 b2 5b c0
       -1.8996724 0.1998953 0.085046776 -3.43274
0003f0 e4 73 e7 bf 8a 9b 0c c0 35 2e c6 be 60 5b 6b 3d
       -1.8082242 -2.1969934 -0.38707128 0.05746019

l3.bias f4 [35]
000000 89 a7 0b bf bf 66 96 be c0 40 0e bf dd 3d 14 bf
       -0.54552513 -0.29375264 -0.5556755 -0.57906896
000010 ef 40 8a bf 50 a1 d3 bf 88 40 33 be 78 05 7b be
       -1.0801066 -1.6533604 -0.17505085 -0.24513805
000020 d5 29 7a be d6 ec ad bf 1c 56 d9 3e bb ee 43 be
       -0.2443002 -1.3587902 0.4244851 -0.19134037
000030 63 1a 1e bf 5e e7 02 c0 a1 7e 0f bf 8c 8f 29 be
       -0.6175901 -2.0453715 -0.56052595 -0.16558665
000040 4e 04 4b bf fa a1 9a bf e9 5f 81 3d 7c 9a 8b bf
       -0.79303443 -1.2080681 0.063171215 -1.090652
000050 18 c0 c1 bf fc 52 7e bf 2d 77 50 bf 68 a6 14 bf
       -1.5136747 -0.99345374 -0.8143185 -0.58066416
000060 ab ba af be 05 55 85 bf c4 4e 00 bf 1b 0e 01 3f
       -0.34322104 -1.0416571 -0.50120187 0.5041215
000070 0f d7 7f bf 07 20 cd bf 64 83 6b bf 58 3e 04 bf
       -0.9993753 -1.6025399 -0.9199736 -0.5165763
000080 c7 f9 91 bf 76 c2 4b bf 1f b3 26 bf
       -1.1404351 -0.795936 -0.6511707
