data.pth (torch, 9770 bytes, 6 tensors)

l1.weight f4 [8, 112]
000000 e9 85 02 40 40 c0 20 bf a8 e8 7a 3f 3f c6 41 bd
       2.0394232 -0.6279335 0.98011255 -0.047308203
000010 99 12 0b 3e fa 43 79 3f b0 dd ed be 8f 5c d8 be
       0.13581313 0.9736935 -0.46458197 -0.42258117
000020 0a 91 3c 3f 85 5d 1c 3f c0 44 0c bf 56 34 07 c0
       0.7365881 0.610802 -0.54792404 -2.1125693
000030 0c 2e 21 40 97 e3 81 3f 3e 1d 81 3f dc 68 b8 3e
       2.5184355 1.014758 1.0087049 0.360175
000040 b7 bc 22 40 7e 39 86 3f 7d e6 46 40 08 29 90 40
       2.5427682 1.0486295 3.107818 4.5050087
000050 0f 7c 03 40 e4 28 e8 be f9 36 fd 3f 4d db d5 3f
       2.054447 -0.45343697 1.9782401 1.670755
000060 27 b2 b9 be 81 4a 10 40 f7 93 a0 3e 30 2d 85 40
       -0.36268732 2.2545474 0.31362888 4.161766
000070 b8 f4 d3 3e b0 fa 8e be 98 2a 92 3f 54 24 b9 be
       0.41397643 -0.27925634 1.1419249 -0.3616053
000080 6c 16 33 3f d6 c9 7f 3f 5d 0c c7 3e 2b 6d fe be
       0.6995609 0.9991735 0.3887662 -0.49692664
000090 0e 21 7b 3f a9 33 7f 3f 68 d4 b7 bf 26 07 aa 3d
       0.9809731 0.996882 -1.4361696 0.08302145
0000a0 32 d3 6c 3f 3e 5d 23 3f 01 e4 3e 3f 32 61 04 40
       0.9250976 0.6381415 0.74566656 2.0684323
0000b0 1b 5a cc 3f 64 99 2b 40 41 78 0c bf 98 cf 8d bd
       1.5964998 2.6812372 -0.5487099 -0.06924361
0000c0 75 d2 90 40 96 51 b0 3e bd 07 5f be a9 2a ff 3d
       4.5256906 0.34437245 -0.21780296 0.12459309
0000d0 23 3f d2 3f 59 28 51 be 1d cd 9b 3e 5f 9f c3 3f
       1.6425518 -0.20425548 0.30429927 1.5283011
0000e0 df 58 57 3f ee 98 86 be 1e c5 58 bf 44 7b aa 3e
       0.8411998 -0.2628855 -0.84675777 0.3329717
0000f0 49 1d 55 bf f5 f3 b2 be 31 1a 7a bf d0 d3 ce be
       -0.8324781 -0.3495175 -0.97696215 -0.40395975
000100 05 a5 a5 3e d7 2a 47 3f b2 57 32 3d 3d 49 d1 bf
       0.32352462 0.77799743 0.043540664 -1.6350476
000110 0a 6e 21 3e 5f b2 a0 bd 94 87 92 bd ac fb 16 bf
       0.15764633 -0.078465216 -0.07154766 -0.5897777
000120 df 11 6d 3f 21 f6 ac be 85 eb a8 3e 5b 86 e3 be
       0.92605394 -0.3378153 0.32992187 -0.44438443
000130 64 40 28 3e f5 1c 04 40 f7 4c ed 3f 31 9f f7 3f
       0.16430813 2.0642674 1.8539113 1.9345456
000140 35 9d eb 3f 16 fa 01 3e a6 22 0f bf 1b a9 83 bd
       1.8407351 0.12693056 -0.55912244 -0.06428739
000150 c3 c8 61 40 cc 18 78 40 b1 0d 57 40 8b 27 ed be
       3.5278785 3.8765135 3.3602107 -0.4631923
000160 bc 00 3d 3f 1b ca 02 40 de d2 21 be 41 8d e8 be
       0.73829246 2.0435855 -0.15803096 -0.45420268
000170 16 4d 85 3f 1d 5e aa 3e 7d 25 df 3f 0f fa 8b be
       1.041415 0.33274928 1.7433316 -0.27339217
000180 24 b3 1e 40 d6 98 0c bd 40 aa e6 be a6 62 b5 3e
       2.4796839 -0.034325443 -0.45051765 0.35426825
000190 b6 f4 25 bf 8f 84 91 3d ff 67 00 3f aa 52 a2 3e
       -0.64826524 0.07105362 0.50158685 0.31703693
0001a0 85 50 d3 3f 64 d6 4c 40 57 6f 6d be c7 b6 e5 be
       1.6508948 3.2005854 -0.23187004 -0.4486601
0001b0 4e 65 9d be fb 20 e3 be 01 8d e2 be 0a 06 8a 3d
       -0.30741352 -0.443611 -0.44248202 0.06739433
0001c0 92 e0 b1 bd 34 31 6c 3e 7d bb 2c 3f 50 0a b4 3e
       -0.086854115 0.23065645 0.67473584 0.35164118
0001d0 29 be c9 3e f9 cb 49 3f 76 38 26 bf be 01 0d bf
       0.39402893 0.7882686 -0.649299 -0.55080783
0001e0 cf 70 53 40 c7 5c db 3f c9 f9 3f 3c 96 16 77 c0
       3.3037603 1.7137688 0.011717268 -3.8607535
0001f0 02 a3 1b 40 d1 9c 42 3f 2e 17 9f 40 55 4d b8 3e
       2.4318242 0.7602053 4.9715796 0.359965
000200 ea 43 ef 3f 24 b0 4b 3f e8 4e 7b be a0 4f 34 40
       1.8692601 0.79565644 -0.24541819 2.81736
000210 9e 23 78 bf 95 5b 23 bf a2 4e 59 3d dc e6 f4 be
       -0.9692935 -0.6381162 0.053053506 -0.47832382
000220 d1 df 2a bf 8e ed ab 3f 21 19 52 3f 14 78 83 40
       -0.66747767 1.3431871 0.82069594 4.108408
000230 04 91 32 3f b2 d9 89 3e f6 27 23 40 30 c1 40 3f
       0.69752526 0.269239 2.549314 0.7529478
000240 13 aa ac 3f 25 ab 37 3f 24 00 88 3f 1d 3a 0f 3f
       1.3489403 0.7174552 1.0625043 0.5594805
000250 2c 70 b6 3f 40 a0 2d 3f 0f 59 00 c0 d0 04 86 3f
       1.4252982 0.6782265 -2.0054357 1.0470219
000260 6d 5b 35 bf 29 40 29 3e fd 5b d6 3f bd 0d 11 be
       -0.7084263 0.16528381 1.6746823 -0.14165397
000270 0d de 24 3f 10 12 78 40 ae 7c b3 bd b2 62 87 3e
       0.6440132 3.8761024 -0.08764015 0.26442486
000280 a8 52 08 bf 4c 4f f0 3a c6 0c 01 3f d4 a9 06 40
       -0.53251123 0.0018334179 0.50410116 2.1041155
000290 74 76 79 40 2f 69 d5 3e aa ca b7 3f 6c fd 8b 40
       3.8978548 0.4168181 1.4358723 4.3746853
0002a0 a9 c3 71 40 8e 4a 53 bd 3a d9 af 3f f0 2f b1 3e
       3.7775671 -0.051584773 1.3738167 0.34606886
0002b0 3a 6a 3e bf 5e 0c 83 3d 08 a1 4e bf f3 09 36 3e
       -0.7438084 0.06398843 -0.80714464 0.17777233
0002c0 25 e6 2a 3f f2 5a 62 3f 95 ea c2 3e fa 0a 0a 40
       0.6675742 0.8842002 0.38069597 2.15692
0002d0 fd 75 f2 3d da 31 c4 3e b2 5a 5a 3e 81 24 28 3f
       0.11838911 0.38319284 0.2132366 0.656807
0002e0 7c e6 3e bf 18 89 7a 3f ba c9 4b 3f 7f 54 01 40
       -0.7457044 0.9786544 0.79604685 2.0207822
0002f0 64 fe 0a 40 0f 25 af 3f fa ad bd 3f 2e 9b a9 3f
       2.1717768 1.3683184 1.4818718 1.3250482
000300 4a 0b bb 3f 75 d6 40 be a9 70 57 3e b9 60 61 3e
       1.461282 -0.18831809 0.2103907 0.22009553
000310 4c ce bd 40 4e a4 47 40 5a fc 4a bf cb a0 24 bf
       5.9314327 3.1194034 -0.7929131 -0.6430785
000320 37 e4 2b 3f 1a 0e 5a bd 23 02 a3 3e 96 06 f2 be
       0.67145103 -0.053236105 0.31837568 -0.4727065
000330 5c 25 87 3f fc 21 86 3b a2 8d dd be 96 cd 40 3f
       1.0558276 0.0040934067 -0.4327212 0.753137
000340 c9 35 39 be d4 f1 34 bf 82 6f 26 bf 72 4a c3 ba
       -0.18086924 -0.706815 -0.650139 -0.0014899506
000350 c7 f5 99 3f 67 60 8e 3e 4a fe 61 be 07 de af 3e
       1.202813 0.27807924 -0.2206966 0.3434908
000360 44 dc 2a 40 67 0d 0d 40 0a c2 6c bf 9a ff 03 40
       2.669694 2.203943 -0.9248358 2.0624757
000370 28 67 32 be 1c 5e 23 bf a0 0e 2b bf e4 76 4c 3e
       -0.17422163 -0.63815475 -0.6681919 0.19967228
000380 78 83 c1 bc 60 0f a3 bf d1 10 a2 3f ca 04 89 3e
       -0.02362226 -1.2739067 1.2661382 0.26761466
000390 9e 39 d2 3e 5e 35 8c 3f 02 63 f8 be 6c 3a 7c be
       0.41059583 1.0953786 -0.48513037 -0.24631661
0003a0 df d7 51 bf 92 7e e5 3e 26 ba a3 be 9b b9 01 40
       -0.8197002 0.44823128 -0.31977957 2.0269535
0003b0 04 8b 08 40 b9 96 9b 3f 27 47 c2 bf a2 09 da 3e
       2.1334848 1.2155372 -1.5177964 0.42585474
0003c0 ec 01 17 40 69 1b 8e 3f 9f 5a 18 40 69 5d a1 bf
       2.3594923 1.1102115 2.380531 -1.2606632
0003d0 ad 57 6c 3f 16 9f f9 be 04 41 c7 bd 53 d9 1d 40
       0.9232128 -0.48754185 -0.097291976 2.4663894
0003e0 0a 0f 1b be d3 df e9 3f 23 7d 94 3e 90 ee 28 bf
       -0.15142456 1.8271431 0.29001722 -0.6598902
0003f0 30 46 fe 3e 23 46 e5 be a0 02 ac 3e 0a 9d 51 3c
       0.49662924 -0.44780073 0.33595753 0.012793789

l1.bias f4 [8]
000000 48 a0 df 3e bd b1 f9 3e 5c c3 ed 3e d8 8f 46 3f
       0.43676972 0.48768416 0.4643811 0.7756324
000010 1e 21 36 3f 1d 4e 0e 3f 38 a7 73 3f 26 68 c9 3f
       0.7114428 0.5558794 0.9517703 1.5734909

l2.weight f4 [8, 8]
000000 b2 2b 81 be 12 12 b2 3f e5 14 85 bf 13 36 8b be
       -0.2522865 1.3911765 -1.0397002 -0.27189693
000010 8f de b4 bf 4c f8 04 3f d2 d7 91 bf f3 f0 0d 40
       -1.413042 0.5194137 -1.1393988 2.2178314
000020 95 bc bb bf cf d8 16 3e 0b 99 7a 3e f0 9a da 3f
       -1.4666926 0.14731143 0.24472444 1.7078533
000030 0c 38 54 be 16 1e d9 3f a1 26 f9 3d ae 76 02 bf
       -0.20724505 1.6962306 0.12165571 -0.5096234
000040 b8 c7 64 3f 69 9c 87 3e 73 cb 39 3f 9f f5 5e bf
       0.89367247 0.2648652 0.72576064 -0.8709354
000050 bd 57 b0 3f 5d db 72 3c 62 9d c4 3f 97 02 fa be
       1.3776776 0.014822808 1.536053 -0.488301
000060 37 ee 84 bf 98 aa b8 bf 3b 16 c6 be 55 26 e9 3f
       -1.0385197 -1.4427061 -0.38688836 1.8214823
000070 b0 a1 49 3e 75 89 8e bf c1 c8 32 3f 7d 45 df 3f
       0.19690585 -1.1135699 0.69837576 1.7443081
000080 c4 a7 e9 3f 0f 19 3c bf ce 4c 25 40 50 49 48 3f
       1.8254323 -0.73475736 2.5828128 0.78236866
000090 30 1b ef bf 13 c0 53 bd 80 b6 0f 40 f6 a0 f3 3e
       -1.8680172 -0.051696848 2.245514 0.4758374
0000a0 9c 91 40 3f 60 bc ca 3f e6 a2 f0 bf 44 e4 9c 3f
       0.7522218 1.5838737 -1.8799713 1.2257161
0000b0 a7 8b ea be 97 66 c7 3f d9 a7 e9 bd 4d 4e a3 bf
       -0.4580967 1.5578183 -0.114089675 -1.275827
0000c0 32 fa 0c c0 83 6b 2a be f3 31 a0 bf ba ed 24 bf
       -2.2027707 -0.16642575 -1.2515243 -0.6442524
0000d0 ea ba 02 40 0e b3 36 3f 6a 75 e1 3f a6 44 5d 3f
       2.0426583 0.71366966 1.7613957 0.86432874
0000e0 7a fe 39 3e f6 fb 4a be 87 f0 95 3e 2c c1 a3 bd
       0.18163481 -0.19822678 0.2928507 -0.07995829
0000f0 f2 36 2a be 1e 36 a4 be d4 7b f1 bd 1a 98 80 be
       -0.16622522 -0.32072538 -0.117911965 -0.25116044

l2.bias f4 [8]
000000 e5 f1 50 3f ff 7c a1 be d0 00 af be b5 2c 67 3f
       0.816191 -0.31540677 -0.34180307 0.9030259
000010 61 c9 f5 3e d2 6c e9 bd 46 ae fd 3e b3 7c b0 be
       0.48005202 -0.11397709 0.49547023 -0.34470138

l3.weight f4 [35, 8]
000000 d0 eb eb be 04 87 2c 3f 04 2b b7 c0 fb 97 96 3f
       -0.46078348 0.6739352 -5.724001 1.1765131
000010 fe 98 2e bf 45 b3 be bf b7 5e 56 c0 94 52 bc bd
       -0.682022 -1.4898459 -3.349531 -0.09195438
000020 0b db 83 c0 8e 2f d7 3d 48 8c 49 c0 b2 5c b4 3f
       -4.1204886 0.10507117 -3.149187 1.4090788
000030 df 63 00 be e7 07 d8 c0 24 2f 79 bf 48 ee 05 3e
       -0.12538098 -6.7509646 -0.97337556 0.13079178
000040 dc 28 0a c0 fd 98 07 be 25 15 1f 3e 71 65 5d c0
       -2.1587439 -0.13241954 0.1553541 -3.4593165
000050 47 d7 75 bf 93 ac 1c c0 92 56 87 3f 9b 7a 76 be
       -0.9603161 -2.448033 1.0573294 -0.24070208
000060 de 22 a9 c0 0f d8 7e c0 ea ea 45 bd a6 0f 11 3f
       -5.2855062 -3.9819372 -0.048319735 0.566645
000070 fe 8e 0c c0 fc 11 11 c0 28 38 b8 3f c4 f9 a9 3d
       -2.1962276 -2.2667227 1.4392138 0.08299592
000080 28 da c0 3f a2 09 57 bf 46 82 f6 c0 fe 87 98 3d
       1.5066576 -0.83999074 -7.7034025 0.074478135
000090 61 23 be be fb fe 7b bf 86 44 36 c0 aa 39 3a 3e
       -0.37136367 -0.98435944 -2.8479323 0.1818606
0000a0 83 42 18 bf 4a 52 b2 c0 8e c8 e2 3d 73 45 89 3e
       -0.5947649 -5.572545 0.11073409 0.26810798
0000b0 7f 4e 5f 3f 7a 93 97 c0 73 85 ac c0 3c 9a 9c 3d
       0.8722915 -4.7367525 -5.39129 0.07646605
0000c0 67 bb 19 c0 d0 95 a4 c0 39 34 89 be 64 28 ca bf
       -2.4020631 -5.1432877 -0.26797655 -1.5793576
0000d0 98 d3 3d bf bf 78 9a 3f 74 66 b2 be fe 4b 92 be
       -0.7415099 1.2068099 -0.3484379 -0.28573602
0000e0 8b 8b 4c c0 ea ca 1f bf 4f 7a cc bf 06 23 84 3f
       -3.196017 -0.62419 -1.5974826 1.0323188
0000f0 0b 2b e9 3e 79 eb 3c be e3 db 9d c0 1a 15 55 3e
       0.45540652 -0.184492 -4.9330916 0.20808831
000100 4a f8 15 c0 3f de ba c0 c0 d1 0b 3f e6 62 f2 bf
       -2.3432794 -5.8396297 0.5461693 -1.8936431
000110 83 81 c1 3e e4 cb cd c0 2f b0 91 be b4 1d 92 bd
       0.37794122 -6.431139 -0.2845473 -0.07134572
000120 05 21 99 3e f0 63 9d c0 0c c0 5f 3f 0c 3f 98 c0
       0.29908004 -4.9184494 0.87402415 -4.757696
000130 48 89 fd bf d5 82 08 3f 67 08 83 bf ec 2c df bd
       -1.980752 0.53324634 -1.0236939 -0.1089724
000140 22 a2 38 be 9b 1f c8 bc 7b d7 af bf fc ff 6f 3e
       -0.18030599 -0.024429133 -1.3737634 0.23437494
000150 16 db 0e bf 64 40 11 bf f7 64 f2 3e 41 c4 82 3e
       -0.5580305 -0.5673888 0.47342655 0.25540355
000160 d0 67 06 3f 9c a8 5c c0 00 0b d3 c0 f3 68 d1 3f
       0.52502155 -3.447791 -6.595093 1.6360153
000170 49 47 2c c0 73 1e c5 c0 fd 2d 82 be 86 44 16 3e
       -2.691851 -6.159967 -0.2542571 0.14674577
000180 5f 89 88 c0 62 a6 56 c0 be 9a a6 3f 0f ff 56 c0
       -4.266769 -3.3539052 1.3015974 -3.3593175
000190 de f4 b3 3e f0 87 1a c0 91 d0 ea bf cd 4f 9a be
       0.35147756 -2.414547 -1.83449 -0.30139008
0001a0 65 ea 87 c0 d1 28 f3 3e 5b fb 80 bd 69 f9 b8 c0
       -4.2473626 0.47492078 -0.06297942 -5.7804456
0001b0 a8 69 48 be 00 44 82 3e 49 9c 86 bf 96 97 49 3e
       -0.19571555 0.25442505 -1.0516444 0.19686732
0001c0 c3 16 8c c0 3a 74 2d 3f 42 e3 c6 bf 27 a2 d8 bf
       -4.3777785 0.6775547 -1.5538104 -1.6924485
0001d0 5e ad 73 3f 2e a8 c0 be 70 b7 78 c0 3a 46 36 3e
       0.9518641 -0.3762831 -3.8861961 0.17800227
0001e0 30 3e 0c be 7a ec 20 3e 57 d1 9a bf 8d e9 b5 bf
       -0.13695598 0.15715209 -1.2095135 -1.4211899
0001f0 cc 27 2f bf c9 90 99 3e 33 04 db bd 80 a9 16 3c
       -0.684201 0.29993275 -0.1069416 0.009195685
000200 e4 1c 34 c0 27 67 3b 3d b9 ca bd c0 0e 85 0d c0
       -2.8142633 0.04575267 -5.9309964 -2.211246
000210 60 18 87 3f d7 aa 0d 3f 7d e6 d7 c0 06 3e 94 be
       1.0554314 0.55338806 -6.746886 -0.2895357
000220 c5 9b b2 be a8 60 60 bf 39 00 c7 bd 4f 73 a2 c0
       -0.34884468 -0.87647486 -0.09716839 -5.0765758
000230 62 27 3b 3f 2d 14 06 bf 71 df 3d c0 c2 bf 64 3e
       0.7310697 -0.52374536 -2.9667628 0.22338775
000240 9a bb 56 3e be 51 71 3c d2 67 94 bf 61 31 44 c0
       0.20970002 0.0147289615 -1.1594183 -3.0655138
000250 43 5e 20 bf 38 86 74 3e 4f eb 20 bd 04 b9 85 be
       -0.6264383 0.23879325 -0.039286908 -0.26117718
000260 a2 90 90 c0 2f f3 0d 3f 01 01 c6 bf ff 76 bd bf
       -4.5176554 0.55449194 -1.5469056 -1.480194
000270 b9 a7 ce 3e bd 66 fc be b4 56 33 be 6c 9b ae bd
       0.40362337 -0.49297133 -0.17513543 -0.08525738
000280 3b 03 5f c0 dd 96 51 bd fb c5 92 3f a6 ad be c0
       -3.4845722 -0.051169265 1.1466669 -5.9586973
000290 1c 5b a2 c0 d2 b4 db 3e 36 ff 99 3e 74 8f 40 be
       -5.0736217 0.42911392 0.30077523 -0.18804723
0002a0 f1 34 fd 3f a3 c9 ab c0 b2 9f 5f c0 93 c2 2a bf
       1.9781781 -5.368364 -3.494122 -0.66703147
0002b0 ca 14 0f c0 d2 ca 53 3f d4 e3 89 bf 42 af 2a 3e
       -2.2356439 0.82731354 -1.0772653 0.16668418
0002c0 0f ea 94 c0 f3 eb be 3f 8c 05 8d be 0a 7e 84 be
       -4.6535716 1.4915756 -0.27543294 -0.2587741
0002d0 bc dc 40 bf fd 8f 23 c0 21 02 25 bf 50 12 a6 3d
       -0.75336814 -2.5556633 -0.64456373 0.081089616
0002e0 44 94 10 40 50 67 f1 c0 11 f9 63 c0 82 b3 70 bf
       2.2590494 -7.5438614 -3.5620768 -0.9402391
0002f0 a9 2c 15 bc 3d 69 bf c0 75 22 e9 bf 56 84 db bd
       -0.009104886 -5.9815965 -1.821364 -0.107186005
000300 6b b7 9d bf 6c 1b 92 3f 1e 95 92 c0 cc 40 c5 3e
       -1.23216 1.1414618 -4.580703 0.38526
000310 a2 d9 27 3f 63 15 85 c0 57 39 8a c0 40 02 fd 3c
       0.65566456 -4.1588607 -4.3194995 0.030884862
000320 d3 6f 1c bf 36 01 52 c0 1a 4a e8 bd a0 ac 84 3f
       -0.6110813 -3.281324 -0.11342259 1.0365181
000330 cc 5d 43 bf 60 93 87 3f 6a 06 ac c0 da 8c 7d 3e
       -0.76315 1.059185 -5.375783 0.24760762
000340 48 e3 a1 c0 b6 3a 1f 3d c2 b9 aa 3e df e7 88 be
       -5.0589943 0.03887435 0.33344847 -0.26739404
000350 42 c7 c7 3e ba ed c9 bf ca 6d 2b c0 58 7b 76 3d
       0.3901921 -1.5775673 -2.678576 0.060176224
000360 5c df 1e be 96 3e d1 be 46 72 9c bf ab 37 01 3d
       -0.15514892 -0.40868062 -1.2222373 0.03154723
000370 9b ab ad 3e 11 b5 3b bf 08 1d ae be c8 9f aa bd
       0.33919987 -0.7332316 -0.34006524 -0.08331257
000380 47 cd b7 3e 74 60 35 c0 df d3 9c c0 ba 07 92 3f
       0.35898802 -2.834012 -4.900863 1.1408608
000390 45 7f 70 3f 69 e7 a8 be 1e 1b b7 c0 6d ae 9d be
       0.939442 -0.32989052 -5.72206 -0.3079714
0003a0 77 73 86 3e a3 34 9e c0 2b 2d 5d 3e b2 a0 28 bd
       0.26259968 -4.9439254 0.21599261 -0.041168876
0003b0 84 5c 8e c0 dd c9 73 c0 02 df 7d 3f 6a d7 1f 3e
       -4.4487934 -3.8091958 0.9916841 0.15609518
0003c0 6d fa 4a c0 3c 68 bc bf 39 13 9b 3f bb 42 4b c0
       -3.1715348 -1.471931 1.2115241 -3.175948
0003d0 91 06 5b c0 12 32 03 be e4 e3 15 3f 60 97 0d 3c
       -3.4222758 -0.12812069 0.5855086 0.008642048
0003e0 73 51 91 c0 6a 50 8e 3e 52 b2 1d bf 87 7a 2a bf
       -4.5411925 0.27795726 -0.6160022 -0.6659321
0003f0 4d dd 10 c0 fe c6 b0 be 39 9a 53 3f 07 5b 97 3e
       -2.2635071 -0.3452682 0.826572 0.29561636

l3.bias f4 [35]
000000 ff 16 ca bf 38 a7 75 c0 6f 79 bf be 38 28 22 be
       -1.5788268 -3.8383312 -0.37397334 -0.15835655
000010 e4 cc 2e c0 62 77 c7 be 35 fe 48 bd f6 2a 3c bf
       -2.7312555 -0.3895827 -0.049070556 -0.73503053
000020 e1 e3 07 c0 4f 64 88 3f 1d 42 8b 3e e2 2b 53 bf
       -2.1232836 1.0655612 0.27198878 -0.82488835
000030 7e 53 fa 3e c6 0e 6d bf f3 ad 13 be 75 65 fa be
       0.48891824 -0.9260067 -0.14421825 -0.4890553
000040 2a 4f 29 c0 4c 54 ad bf de 10 00 bf 0c bc d9 bf
       -2.6454568 -1.354135 -0.5002574 -1.7010512
000050 1a 30 a1 bf 65 37 14 bf e2 a9 c5 bf 0c 2f 01 c0
       -1.2592804 -0.57897025 -1.5442469 -2.0184965
000060 f3 a0 98 3e 69 10 c5 3e 75 62 cc be ea a6 a2 bd
       0.29810295 0.38489082 -0.39918867 -0.079419926
000070 9b dd 06 be 39 df 2f bf ee 09 f8 be ae 7e 99 bf
       -0.13170473 -0.68699986 -0.48445076 -1.1991785
000080 0d da e8 bf 4f 90 2f bf 5c bd 03 be
       -1.8191544 -0.6857957 -0.12865204
