data.pth (torch, 9770 bytes, 6 tensors)

l1.weight f4 [8, 112]
00000000: 535e e73f 7a35 3cbd 06be 84be 5533 b1bd
00000010: ec82 f0bd 57ed 90be 6eb6 f53f 614c a5be
00000020: 55c9 813e 1576 603e 27d7 ed3e a1ce 71bf
00000030: 169a 2c40 0730 8abe d381 c5bf c0f8 d2bd
00000040: bd79 dbbf dd57 94be 385e 313f 2eb0 b3bf
00000050: 107f bcbf a5c8 f73f d94f e53f faec 2ebf
00000060: 2294 0b40 e3ad 1b40 29e3 5b3f aede 30bf
00000070: 0dfc b33e 21bf ca3e 71e9 223f 079c 9e3e
00000080: 731f 063f 7412 76be d973 123f 19ac 393d
00000090: 2a73 123f c9e3 89be 58c2 a3bf da4d 253f
000000a0: f3c9 8abf 23b6 c73f 1a4b be3e 9591 653f
000000b0: 1437 dd3f 953c 263e f954 a73e bc8c 63bf
000000c0: b7cc 18c0 c423 573e e957 c4be 5b2e 2f3f
000000d0: 2054 cb3f a7d9 a83d 4a1d d2bf e927 6a3f
000000e0: 1a63 663f 0a33 5b3d e75c bd3e 26ed 143d
000000f0: 737d 52bf e09f 853d cfc2 43bf 1a95 303f
00000100: 2060 ab3f 99c2 173e d581 5b3f 5122 ebbf
00000110: 2215 82bd dbdd cbbd 21b3 103e 8f21 81be
00000120: ee65 0f40 1e83 7e3e 13e5 273f 3f45 07bf
00000130: 807e 09bf dc08 08bf e0ef 07bf 8017 07bf
00000140: bda3 07bf 45e0 88bd 9ff1 f03d 7706 b9bd
00000150: f5e6 2640 472f b2bf 7c1c d13f f5fa f53f
00000160: 1726 b33f 186d f73f 4034 37bf ad98 a6be
00000170: 83d2 1abe 74da 8bbe aadc 5abf 2832 103d
00000180: 0ac1 d2bf 36ad 9b3f d197 fb3f 6709 3a3e
00000190: 1576 33bf 7bd5 5f3f 227e ad3d 448c afbd
000001a0: b84b ddbf fbbf cabf 20fa ad3f d171 07bf
000001b0: d353 ca3e 3c62 f93f ed5e ed3f ee6e 393e
000001c0: 9047 72bf c7a9 a53f 6a18 b13f 931c ef3d
000001d0: 36c3 0bbf 4df1 bd3f 9bbb 09bf 49e6 7440
000001e0: 5aaa 2b40 ac0f 6740 7bae 1340 61a1 0e40
000001f0: 709e 1b40 dd8c b63f 952f 1240 2709 023f
00000200: b097 2d40 7d49 b73f 180b 2b40 55bc b840
00000210: 852c 7a40 c6b8 09bf 98e2 51bf 7dc5 49bf
00000220: 44f8 6040 14ba 82c0 8010 2a3e 7594 7a40
00000230: 9304 b23d aff8 d03e 7a19 ae40 4e5e 6a3f
00000240: 906f 7140 dd06 b73f 67df 823f e6c6 3e3f
00000250: d29f 9640 7974 ba3f b5f4 383f 4898 9540
00000260: 2982 5a40 3980 403f e666 5940 6b8d c33f
00000270: 4e07 873f 2722 f63f 5c99 0940 e32a e03f
00000280: 12e0 0840 d0ee ec3e ebb3 48be 304b 513f
00000290: 9410 363f 4e9e a93e 0a73 ae40 bef2 a73e
000002a0: 39ba debd 01e0 2740 2513 8b3f d154 123e
000002b0: b718 2540 f815 3640 98e7 2740 43d9 f9be
000002c0: e41f 9d3f d289 c53f cd62 203f bfc6 8340
000002d0: 3b63 2cbe 6381 cb3d 293f 823e bbc1 103f
000002e0: 572a 5140 2f4e 9a3f ca78 1e40 9acb b7bd
000002f0: 217d d6be 0db7 3340 781c fa3f 1a85 fa3f
00000300: 91dd fc3f 5e3a 2440 37be 3340 8c31 85bc
00000310: f7bd 993f efd1 5440 e91d 6240 25b4 0abf
00000320: 453e 723f cb01 69bf e798 d53f 9bfa 7740
00000330: a5d8 2240 3c64 9d3f 11bc 48bf 51ae 643f
00000340: 2b6e b6bf a511 aebb 7969 09bf f0f3 de3e
00000350: 571e 6240 efb6 3d3f 85db 433e 4699 013f
00000360: 9e1e 5240 0928 ad40 0923 1bbe b732 acbd
00000370: 40ee 723f 5c11 09bf a888 3b40 3a9e a03e
00000380: ded0 6c3f d3d3 553f e148 94be 14ed 2dbc
00000390: dba5 aebd d520 68be e521 363f 2484 66be
000003a0: e4fa 6740 79ec 153f 2350 9c3f f776 dcbf
000003b0: dc6a 0b40 9727 7dbe 3548 14c0 a2d9 9fbd
000003c0: 96d8 acbf de3c 81be 357e 273f 3e5e a1bf
000003d0: 3742 2740 202f 353f c259 613f b4c0 91bf
000003e0: cd49 0340 b030 1bc0 defc 07bc d276 2b40
000003f0: f531 b83d 67ac 4b3f f0a4 893f 25af c73e
1.807566 -0.045949437 -0.25926226 -0.08652369 -0.11743721 -0.28306076 1.9196298 -0.32284835
0.25348917 0.21920045 0.4645321 -0.94455916 2.6969047 -0.26989767 -1.5430244 -0.103013515
-1.7146527 -0.28973284 0.6928439 -1.4038141 -1.4726276 1.9358107 1.7914993 -0.6833035
2.1809163 2.4324882 0.85893494 -0.6908978 0.35153237 0.39598945 0.63637453 0.30978414
0.5239174 -0.24030477 0.5720802 0.04533014 0.57206976 -0.269316 -1.2793684 0.6457192
-1.084288 1.5602459 0.37166673 0.89675266 1.7282434 0.16234048 0.32682016 -0.8888662
-2.3874948 0.21009737 -0.3834832 0.6843011 1.5885048 0.08244639 -1.6415188 0.9146715
0.89994967 0.05351547 0.3698494 0.036358975 -0.8222267 0.06524634 -0.7646913 0.6897751
1.338871 0.14820327 0.8574498 -1.8369848 -0.06351687 -0.09954425 0.14130832 -0.25220916
2.2405963 0.24854705 0.65583915 -0.52840036 -0.5370865 -0.5313852 -0.53100395 -0.52770233
-0.5298422 -0.06683401 0.117648356 -0.09034436 2.6078465 -1.3920678 1.6336818 1.9217211
1.3995999 1.9330168 -0.715641 -0.32538357 -0.15119366 -0.27315104 -0.85492957 0.035204083
-1.6465161 1.2162235 1.9655706 0.18167649 -0.70102054 0.8743512 0.084713235 -0.085716754
-1.7288733 -1.5839838 1.3591957 -0.52908045 0.39517078 1.9483104 1.8544594 0.18108723
-0.94640446 1.2942437 1.3835576 0.11675372 -0.54594743 1.4839264 -0.5380189 3.8265555
2.6822724 3.6103315 2.3075244 2.2285998 2.4315453 1.4261738 2.2841542 0.50795215
2.7123833 1.4319302 2.672552 5.7729897 3.9089673 -0.53797567 -0.8198638 -0.7881697
3.515153 -4.0852146 0.16607857 3.915311 0.08692279 0.4081473 5.44061 0.9155015
3.7724342 1.429897 1.0224427 0.74522245 4.7070093 1.4566795 0.72248393 4.674839
3.4141943 0.7519565 3.3969054 1.5277532 1.0549104 1.9229172 2.1499853 1.7513088
2.1386762 0.4627595 -0.19599883 0.8175535 0.71119046 0.3312859 5.451543 0.32802385
-0.10875363 2.623047 1.0865217 0.14290167 2.5796335 2.8450909 2.6235104 -0.4879857
1.2275357 1.5432684 0.6265076 4.118011 -0.16834728 0.09936788 0.25438812 0.5654561
3.2682092 1.205511 2.4761224 -0.08974381 -0.4189234 2.8080475 1.9539938 1.9571869
1.9755117 2.5660625 2.8084848 -0.016258977 1.2011098 3.3253133 3.5330756 -0.5418113
0.94626266 -0.9101836 1.6687287 3.8746707 2.544473 1.2296214 -0.78411967 0.89328486
-1.425237 -0.005312162 -0.53676564 0.43545485 3.5331018 0.7410726 0.19126709 0.506245
3.2831187 5.411137 -0.15150084 -0.084081106 0.9489479 -0.53542113 2.9302158 0.31370717
0.92506206 0.83526343 -0.28961852 -0.010615606 -0.08527728 -0.22668774 0.7114547 -0.22511345
3.6246881 0.58563954 1.2211956 -1.7223805 2.1783972 -0.24722134 -2.3169072 -0.07805182
-1.3503597 -0.2524175 0.6542695 -1.2606885 2.6134164 0.7077503 0.88027585 -1.1386933
2.0513794 -2.4248466 -0.008300034 2.6791272 0.089939035 0.7955994 1.075346 0.39000812

l1.bias f4 [8]
00000000: b66e fd3e f211 fd3e c91c 013f 182d 9e3e
00000010: 04b4 723f defe b73f fb79 8b3e bcfd 103f
0.49498528 0.49427754 0.5043455 0.3089378 0.9480593 1.4374654 0.272415 0.5663717

l2.weight f4 [8, 8]
00000000: eb27 69bf 63dc 803f af74 c2bf f189 d9bf
00000010: 9ac8 9c3f 76c3 ac3f 66bd 753f 2d46 2ebf
00000020: 0d00 94be b0b8 f83e d7a3 01c0 d230 c73f
00000030: e764 a3be 094d 8a3d 3bab 2f3f 99e0 bc3f
00000040: ac83 0240 dde9 bdbf cec5 cfbe 286e 5abe
00000050: f3f4 f5be 4290 c83f 207e 0640 f328 57be
00000060: 045b 963f d55f e43f fc6e 813f 041f d13f
00000070: 9b86 9f3f dab4 96bf 047e ca3f 7313 c53f
00000080: 9657 6bbf 8bef d3be 4bc9 c43f 589a 233e
00000090: 6cfc 883f 2669 9f3f ae09 52bf 2ee2 d43d
000000a0: 6f12 93bf e51c 93bf 560d a9bf 294f 863d
000000b0: e7c0 b63f fbb7 b03f 02f6 f4bf c603 313f
000000c0: 82c5 a0bf 4aa8 ca3f 0b9f eab9 678d c63f
000000d0: aa3f d9bf 1682 203f 98e8 1840 9383 6b3e
000000e0: 152e 58bf 45ac d63f aa9d 1740 b83d e73e
000000f0: 6a27 92bf 74d9 8c3f cd1f 693e 0fd6 86bf
-0.91076535 1.0067257 -1.5191859 -1.6995221 1.2248719 1.349715 0.95992124 -0.6807583
-0.2890629 0.48578405 -2.025625 1.5561774 -0.3191292 0.067529745 0.6862065 1.4756042
2.0392866 -1.4836994 -0.405806 -0.21331084 -0.48038444 1.5669024 2.101448 -0.21011715
1.1746526 1.7841746 1.0111995 1.633759 1.2462953 -1.1773942 1.5819707 1.539656
-0.9193052 -0.41393694 1.537393 0.15976846 1.0702033 1.2453964 -0.8204602 0.10394703
-1.149 -1.1493193 -1.3207195 0.06558067 1.4277619 1.3806146 -1.9137576 0.6914638
-1.2560275 1.5832608 -0.00044750454 1.5511903 -1.6972554 0.62698495 2.3891964 0.2299941
-0.84445316 1.6771322 2.368998 0.45164275 -1.1418278 1.1003861 0.22766037 -1.0534075

l2.bias f4 [8]
00000000: b3cb 9c3f 7064 613f 9b2c 4d3d fc08 18bf
00000010: cfc9 923e a442 f43e d255 3ebf 5cb9 803f
1.2249664 0.8804388 0.050091367 -0.5938871 0.28669593 0.47707093 -0.743497 1.0056567

l3.weight f4 [35, 8]
00000000: 323c d4bf 0041 7bbf 8df2 a1bf 3023 21c0
00000010: d4df 1dc0 21e9 88c0 084b 383e c85f d7be
00000020: efd2 d9bf f4b5 6f3e d08b ec3d 323a 15c0
00000030: 3a84 febf f108 30bf 02cc 06bf 9cee 0fc0
00000040: 0cf8 ee3f bda8 2dbf df0b 6cbf 3f83 eac0
00000050: 3ceb 3e3e d81f d93f e991 57c0 c011 a6bf
00000060: 1a46 a1bf 0c13 39c0 893b 51c0 0e1f 273f
00000070: 902f b0be 6d2c 39c0 e7d6 36c0 c96c b23f
00000080: 7db9 9ebf 9c3a 223f 0f13 a6bf fe5d 76c0
00000090: b203 c0bc 2b82 723f 0148 e33d acfa 04bf
000000a0: 0523 95c0 65e3 dfbe cfd5 70bf 28bb c1bf
000000b0: 217b 28c0 54ce 46c0 03ac a6be 1010 65bf
000000c0: 7298 c43f 7860 88bf 7593 e6bf f1fb c7bf
000000d0: 5b5d c7bf 4aa7 04c0 eb4e 91bf c99b 35bf
000000e0: 7a5d 45be 2dd5 58c0 3601 69bf 11a9 0fc0
000000f0: 749a fdbe 22a2 85c0 1ead 333e 289c 2e3e
00000100: 408e 713f 0aae 0bbf fc71 333f bb82 f4bf
00000110: 5679 4d3e 988d 703f ffd7 3dbf 5fb0 a3c0
00000120: b323 9f3f 37c0 6cc0 e07d 6ec0 61fc f2be
00000130: 2056 99be 0fec f7bf 2b82 27bf a26a 923e
00000140: 8c98 1bbf 5e3b f23d 6b74 963e 797b 5ebf
00000150: 64b2 2c3e 5543 bd3e bee4 4ac0 8a57 823e
00000160: 3264 213e 5c77 cbbe a55d 953e e232 90c0
00000170: 8516 cbbf d72f eabf edd9 1d3e 4336 ecbe
00000180: f422 90be 9fb8 debe 4830 93c0 4b5f c1bf
00000190: 1c99 4ec0 75a7 6dc0 36c9 f1bd d7b7 95be
000001a0: 5d54 90c0 f84b 0ac0 5e35 fc3e e956 34bf
000001b0: 4d40 c3c0 d434 aec0 ebe9 9bbf fc20 f6be
000001c0: e399 9cc0 9571 423e aba1 16bd b434 babf
000001d0: f321 83c0 98df a5bf ff8a dbbc aa23 83c0
000001e0: cb0a dac0 c683 023e e561 0cbd 68f4 603e
000001f0: 644b 833e a519 023e d1ce 15c0 11a8 18c0
00000200: 1fa3 62c0 f531 783f 4d0b 9ac0 3b16 5bbe
00000210: 0ffd a23e d4d7 a03e e622 43bf 0d39 41c0
00000220: a8c0 5e3f d2fb cebe 32f0 4b3f 905f 8fbf
00000230: cf42 aec0 96bb 33c0 7353 17c0 df69 07c0
00000240: 241d 46c0 a3b7 843e 2d7e 983e 05e0 fa3c
00000250: 0b4f c13d f083 0a3e 2722 1cc0 dda8 9ac0
00000260: 052b b1c0 0d71 17bd b82b 20c0 7290 3a3e
00000270: 1ea5 aec0 9208 3fc0 50e6 84bf ee2a 0dc0
00000280: 3ec8 abbe 51f9 b5bf 9c48 47bf 64a3 0bbf
00000290: 90a4 fdc0 f22c a6c0 c1cf a5bf c190 a2bf
000002a0: ce1e a13f d5a2 90bf bdaa 4a3f 6416 04c0
000002b0: fd5f 16c0 8faf d2bf d615 95bf 1263 0dc0
000002c0: aafe bfbf 9c17 f2bf 72c2 8dc0 ef70 f0be
000002d0: a6f5 5b3f 73a7 f73d 2aac 39bf e049 263e
000002e0: 3786 a1be 7012 c6bf 080e 69c0 b839 1ec0
000002f0: c6ca f4bc b8f1 81be 6fad d03e 4e8a db3e
00000300: cf28 58c0 326e e5be cda3 99c0 4673 a5bf
00000310: 6ce0 72bf 85dd 01c0 7a0e e33b 6864 06bd
00000320: 263c 933f 00aa 3fbe 3f91 96bf 4707 4bbf
00000330: 4d03 b1bf 2987 89bf 9f19 a9bf 60bd 5dc0
00000340: 925d 0cc0 7681 10c0 9e9e 13be 3ce9 79bf
00000350: f2b7 93bf 81b0 3cc0 4e47 5abf fddb fdbe
00000360: 0bc8 003f 65f5 fc3e 7919 7abf 14c3 13bf
00000370: fd9d 5d3e f591 e53e 973e 4bc0 3864 92be
00000380: 4872 813f 31ad 29c0 5514 0dbf 94aa 88c0
00000390: 37ee aa3e 0a20 dfbf 905a 063f 1f5d d23e
000003a0: d5e6 e1bf 638b bcbd 47c0 14c0 d381 acbe
000003b0: 2825 0ec0 7233 d2bf 9967 69bf 2608 1ac0
000003c0: 0304 81c0 678d 82c0 889d 613e de1c 59bf
000003d0: a246 0bc0 00b2 bac0 0368 16c0 ae6a 9e3f
000003e0: a526 59c0 1aee aabf 75e3 5cc0 76c7 00bd
000003f0: 3467 14c0 cd95 75c0 0df1 82bf be2c 55be
-1.658087 -0.9814606 -1.2652146 -2.5177727 -2.4667864 -4.278458 0.17997372 -0.42065263
-1.7017497 0.23409253 0.115501046 -2.331677 -1.9884102 -0.68763644 -0.5265504 -2.2489386
1.8669448 -0.678356 -0.92205614 -7.3285213 0.18644422 1.6962843 -3.3682806 -1.2974167
-1.2599518 -2.8917875 -3.2692587 0.6528176 -0.34411287 -2.8933365 -2.8568666 1.3939449
-1.2400357 0.6337068 -1.2974566 -3.8494868 -0.023439262 0.9472987 0.11097718 -0.51944995
-4.660525 -0.43728176 -0.94076246 -1.513524 -2.6325152 -3.1063433 -0.3255311 -0.89477634
1.5359023 -1.065444 -1.801375 -1.5623761 -1.5575365 -2.0727105 -1.1352209 -0.70940834
-0.1927394 -3.3880112 -0.9101747 -2.244694 -0.495319 -4.1760416 0.17546508 0.17051756
0.9435768 -0.5456244 0.700958 -1.9102396 0.20065817 0.93966055 -0.7415771 -5.1152797
1.243277 -3.6992319 -3.7264328 -0.47458175 -0.2994852 -1.9368914 -0.65432996 0.2859698
-0.60779643 0.1182773 0.29385695 -0.86907154 0.16864926 0.36965433 -3.1702113 0.25457412
0.15760878 -0.397395 0.29173008 -4.5062113 -1.5866247 -1.829585 0.15415163 -0.46135148
-0.28151667 -0.4350023 -4.5996437 -1.5107206 -3.228095 -3.7133458 -0.11805956 -0.2924182
-4.5102983 -2.1608868 0.49259466 -0.70445114 -6.101599 -5.4439487 -1.2180761 -0.4807204
-4.893785 0.1898864 -0.036775272 -1.4547334 -4.097894 -1.295886 -0.026799677 -4.0981035
-6.8138175 0.1274558 -0.034273047 0.21968234 0.25643456 0.12705095 -2.340748 -2.385258
-3.5412061 0.9695123 -4.8138795 -0.21395199 0.31833693 0.31414664 -0.76225126 -3.019107
0.8701272 -0.404265 0.79663384 -1.1201038 -5.4456553 -2.8083243 -2.3644683 -2.1158369
-3.0955286 0.25921354 0.29783764 0.030624399 0.094389044 0.13526893 -2.4395845 -4.833113
-5.5365014 -0.036973048 -2.5026684 0.18219164 -5.457656 -2.984898 -1.0382786 -2.2057452
-0.3355121 -1.421671 -0.7784517 -0.5454619 -7.926338 -5.1929865 -1.2954026 -1.2700425
1.2587526 -1.1299692 0.79166776 -2.0638666 -2.3496087 -1.6459826 -1.1647289 -2.2091718
-1.4999592 -1.8913455 -4.429986 -0.46961161 0.85921705 0.12092485 -0.72528327 0.16239119
-0.3154771 -1.5474377 -3.6414814 -2.4722729 -0.029881846 -0.2537973 0.4075732 0.42878956
-3.3774908 -0.44810635 -4.801245 -1.2925804 -0.9487369 -2.0291455 0.006929216 -0.0328106
1.1502731 -0.18717194 -1.1763076 -0.7930798 -1.3829132 -1.0744373 -1.3210944 -3.4646835
-2.193211 -2.2579017 -0.14415976 -0.9762151 -1.1540511 -2.948273 -0.8526505 -0.495819
0.5030524 0.4940597 -0.9769512 -0.5771954 0.21642299 0.4483792 -3.1756952 -0.28592086
1.0113001 -2.6511958 -0.5510915 -4.2708225 0.33384869 -1.7431653 0.5248194 0.4108667
-1.7648569 -0.092062734 -2.3242357 -0.33692798 -2.2210178 -1.642195 -0.911737 -2.4067473
-4.0317397 -4.079761 0.2203275 -0.8480967 -2.176186 -5.8342285 -2.3500984 1.2376306
-3.3929837 -1.3353913 -3.4513829 -0.03144022 -2.318799 -3.837268 -1.0229813 -0.20817849

l3.bias f4 [35]
00000000: 3b24 37bf db14 c2be 35d8 e53c 3d14 ddbf
00000010: c692 63bf e4d8 61bf ed0f 64bf 9a6a 62bf
00000020: 33be 45c0 7a9d d7bf 297c 413f d18c acbe
00000030: 0ae3 5e3e f937 adbf f1c5 1dbf a76c 143e
00000040: 58d9 ab3c e6ea 0dc0 139b 253e 1bf5 6fbf
00000050: 5acd 643f 6b47 dabf 127a bebf 136d 49be
00000060: ce12 0cbf 3f1b 13c0 1eee 10c0 02ba b63e
00000070: b741 19c0 338e 08bf 3e9d efbf 1576 40bf
00000080: 2f82 5f3e 7a9c abbf aae5 67bf
-0.7153966 -0.37906536 0.028057197 -1.7271801 -0.88895833 -0.88221574 -0.890868 -0.8844391
-3.0897338 -1.6844933 0.7558008 -0.33701184 0.21766296 -1.3532706 -0.6163016 0.14494573
0.020977661 -2.217462 0.16172437 -0.93733376 0.8937584 -1.7053045 -1.4881003 -0.19670515
-0.54716194 -2.298538 -2.2645335 0.35688788 -2.394636 -0.5334198 -1.8719862 -0.7518018
0.21827005 -1.3407128 -0.90584815
