data.pth (torch, 9770 bytes, 6 tensors)

l1.weight f4 [8, 112]
0	0xbf8961b6	-1.0732944
1	0xbf338192	-0.70119584
2	0xbeaeaf6c	-0.3411821
3	0xbd35638c	-0.04428439
4	0x3d843830	0.064560294
5	0xbe60019b	-0.21875612
6	0x40046d71	2.0691798
7	0x40120f87	2.2821977
8	0xbff84145	-1.9394919
9	0x401174a9	2.2727454
10	0x408fec22	4.497575
11	0xc014cd34	-2.3250246
12	0x406b00fb	3.6719348
13	0xbe98f691	-0.29875615
14	0x3fef65c2	1.8702929
15	0xbd731842	-0.059349306
16	0xbff62529	-1.923009
17	0xbe5b9d89	-0.21446814
18	0x40187a0b	2.382449
19	0x3f86e55a	1.0538743
20	0xc05cac5b	-3.4480197
21	0x40058de2	2.0867848
22	0xbf8ba436	-1.0909488
23	0xc017c251	-2.3712351
24	0xbebf774a	-0.37395698
25	0xc03af480	-2.921173
26	0x3e8106d7	0.2520053
27	0x40009e58	2.0096645
28	0xbd5f0ca7	-0.054455426
29	0xbf0cb1eb	-0.5495898
30	0x40130d38	2.2976818
31	0x3f065cbd	0.5248526
32	0x3fc00a9a	1.5003235
33	0xbeada708	-0.33916497
34	0x3f918bf4	1.1370835
35	0x3fb0a54c	1.3800445
36	0x3f8fe230	1.1240902
37	0xbe85b157	-0.26111862
38	0x3fe75ae9	1.8074619
39	0x4089d649	4.307408
40	0x402670bd	2.600631
41	0xbf2df529	-0.6795221
42	0x3fdc4ad7	1.7210339
43	0xbdaecb06	-0.085348174
44	0xbeb731f0	-0.35780287
45	0x3fa06f50	1.253397
46	0x4086c679	4.2117276
47	0xbefbdb9d	-0.4919099
48	0x4060452b	3.5042217
49	0xbd321911	-0.043480936
50	0x3ecccf11	0.4000173
51	0xbce0706f	-0.027397363
52	0xbe9e2904	-0.30890667
53	0x3f0e3bea	0.5556017
54	0xbfea81f0	-1.8320904
55	0xbf72e998	-0.94887686
56	0xbf6ead03	-0.93232745
57	0xbf2d1ab9	-0.676189
58	0xbecd0d2b	-0.4004911
59	0x3d24f9eb	0.040277403
60	0x3f6a6b0f	0.9156961
61	0x3e18bfb0	0.14916873
62	0x3f569080	0.8381424
63	0x3ed9904c	0.42492902
64	0xbe629e96	-0.22130808
65	0x3edecc1a	0.43515092
66	0x3cc45b0b	0.023969194
67	0x3f8610e3	1.0473903
68	0x3e5e118e	0.21686384
69	0x3d008b85	0.031383056
70	0xbe3af044	-0.18255717
71	0xbd86958f	-0.06571495
72	0xbfb16415	-1.3858668
73	0x3f5738f6	0.8407129
74	0x3fbeb0bf	1.4897689
75	0xbf10164f	-0.5628404
76	0x3d015872	0.03157849
77	0xbf0e9878	-0.557014
78	0xbf0e58c3	-0.5560419
79	0xbf0f9afe	-0.56095874
80	0xbf0e9852	-0.5570117
81	0xbedb00f1	-0.42774156
82	0x3dede954	0.116167694
83	0xbdbe4f10	-0.09292424
84	0xbf911173	-1.133345
85	0xc092d7fc	-4.5888653
86	0x3fcaecc6	1.5853508
87	0x4006b739	2.104933
88	0x3e6ee98d	0.2333128
89	0xbf80d29c	-1.0064273
90	0xbee49da2	-0.44651514
91	0x4015931f	2.3371046
92	0xbfb54bd6	-1.4163768
93	0xbf565ee0	-0.8373852
94	0xc01b0207	-2.4219987
95	0x3f8dcf1d	1.1078831
96	0xc0485fd9	-3.13085
97	0x3fbb9f09	1.4657909
98	0x40070332	2.10957
99	0x3ce10a8b	0.027470848
100	0xbfa7c90d	-1.3108231
101	0xbb290e13	-0.0025795742
102	0x3d4e0292	0.05029542
103	0x3b306517	0.0026915723
104	0x400ce0c6	2.201219
105	0x400f8afd	2.2428582
106	0x3ff3aedb	1.9037737
107	0xbf0f88c2	-0.5606805
108	0xbe12a9bd	-0.14322563
109	0x4006c9bb	2.1060627
110	0xbe6f518f	-0.23370956
111	0x3da27109	0.07931716
112	0x3e97118e	0.2950558
113	0x3d703ab7	0.058649745
114	0x3dd876dc	0.105695456
115	0x3e14acef	0.14519094
116	0xbc252af0	-0.010081038
117	0x3e4cd46a	0.20002905
118	0xbec41268	-0.38295293
119	0xbf3b0d58	-0.73067236
120	0xbfa9a84d	-1.3254486
121	0x3f8dce7c	1.1078639
122	0x3f215d49	0.63032967
123	0x3f457c00	0.77142334
124	0x400eb753	2.2299392
125	0x3de9595d	0.11393998
126	0xbfc24131	-1.5176145
127	0x3dc77316	0.09738748
128	0x3f209fe6	0.62743986
129	0x3e3537c4	0.17697054
130	0xc01afc1c	-2.4216375
131	0x3f87b39d	1.0601689
132	0xbe1fa1f5	-0.15589125
133	0xbeb79631	-0.35856774
134	0x3e9c570e	0.30535167
135	0xbf645034	-0.8918488
136	0x3efcf82f	0.494081
137	0x3ff9fefa	1.9530938
138	0xbebd220c	-0.36940038
139	0x40262b1d	2.5963814
140	0x3e27006f	0.16308759
141	0xbeb90335	-0.3613526
142	0x3fb65477	1.4244527
143	0x3e981817	0.2970588
144	0x3f5a5160	0.8528042
145	0x3dc8f43f	0.09812211
146	0x3ddbad69	0.10726435
147	0x3cd5de34	0.026106931
148	0x3f94f5dc	1.163753
149	0x3d2e1428	0.04249969
150	0xbf595619	-0.84897
151	0x3ec9448d	0.39310113
152	0x3fd75dc3	1.6825489
153	0xbc2748cc	-0.010210227
154	0x3f97500b	1.1821302
155	0x3f5ef8b8	0.87098265
156	0x3f76a65e	0.96347606
157	0xbdf33fdc	-0.118774146
158	0xbf144236	-0.5791353
159	0xbf5917d6	-0.84801996
160	0xbf71954f	-0.9436845
161	0x3da199fd	0.07890699
162	0xbf563382	-0.83672345
163	0xbe73c75d	-0.2380652
164	0x3c8209b7	0.015873773
165	0x3d1ba17e	0.037995808
166	0x3eb8903e	0.36047548
167	0xbf674998	-0.9034667
168	0xbe9479d5	-0.289992
169	0x3c9a886f	0.018863885
170	0xbeff1328	-0.49819303
171	0x3dc39fd1	0.09551967
172	0xbf8dae2e	-1.106878
173	0xbe6d69d0	-0.23184896
174	0xbf8c31a8	-1.0952654
175	0x3cf1d3e2	0.029519979
176	0x3e3ac348	0.18238556
177	0x3f5324b3	0.82477874
178	0xbd4fbd59	-0.050717685
179	0xbeb5f325	-0.35537067
180	0x3e732f91	0.23748614
181	0xbcfc7db3	-0.030821657
182	0xbe369284	-0.17829329
183	0x3e4d6d06	0.2006112
184	0x3f6ca49a	0.9243866
185	0x3e671412	0.2256625
186	0x3f2623f3	0.64898604
187	0xbf25ec03	-0.6481325
188	0xbf8297bb	-1.0202554
189	0x3e8d1bc5	0.2756025
190	0x3ead320c	0.33827245
191	0x3ed08a6a	0.40730602
192	0x3ebf7531	0.37394097
193	0x3d8e7740	0.06956339
194	0xbe8eae2d	-0.2786726
195	0x3dd3650e	0.10322009
196	0x3f232294	0.6372464
197	0x408013c9	4.002415
198	0xbda1a16f	-0.07892119
199	0xbeb4dd2e	-0.35324997
200	0x3e8912da	0.26772195
201	0x3e968c1c	0.2940377
202	0xbf65fc80	-0.8983841
203	0xbf4add7c	-0.7924421
204	0x3fa1a200	1.2627563
205	0x3f271cf8	0.6527858
206	0xbf6c254e	-0.9224442
207	0x3ce674e8	0.028131917
208	0xbec4a62f	-0.38408038
209	0x3e58945a	0.21150342
210	0xbe9d4e0f	-0.30723616
211	0xbd58b622	-0.05290807
212	0x401537ab	2.3315227
213	0xbcc4f81c	-0.024044089
214	0x3da179e2	0.078845754
215	0x3de4156c	0.111368984
216	0x3d4ddc81	0.050259117
217	0x3ef16fb4	0.47155535
218	0x3f161840	0.5863075
219	0xbf4eec1b	-0.8082902
220	0x3ea53c7c	0.32272708
221	0xbebf0e17	-0.37315437
222	0x3f44594a	0.76698744
223	0xbd93c13e	-0.072145924
224	0xbfba6844	-1.4563069
225	0x3fbacc47	1.459359
226	0x3f46f379	0.7771526
227	0xbdebf9ce	-0.11522256
228	0xbd6929a7	-0.05692449
229	0x3f3eba4d	0.7450302
230	0x3fe0e22e	1.7569025
231	0x400bbee9	2.1835272
232	0xbeae52e9	-0.3404763
233	0x403df10e	2.9678378
234	0x40648260	3.5704575
235	0x406b81d6	3.6797996
236	0xbf3b8981	-0.7325669
237	0x3f4065ed	0.75155526
238	0xbf88d846	-1.0691001
239	0x3ead3ee4	0.33837044
240	0xbe122f94	-0.14275962
241	0x3f3d04c2	0.73835385
242	0x3faf4037	1.3691472
243	0x3f8baa12	1.0911276
244	0x3f8f3f7b	1.1191248
245	0x3fdf5286	1.7447059
246	0xbfbc31f0	-1.470274
247	0x3f468338	0.77543974
248	0x3f70ba5d	0.9403437
249	0xc0516aa8	-3.2721348
250	0xbe8c1767	-0.27361605
251	0xbf344997	-0.7042479
252	0xbd6525b4	-0.05594416
253	0x3ec9af73	0.3939167
254	0x406ba35c	3.6818457
255	0x3f64d96d	0.89394265

l1.bias f4 [8]
0	0x3eed6026	0.46362418
1	0x3f90bf6e	1.130842
2	0x3f07aea6	0.5300087
3	0x3f3823a1	0.71929365
4	0x3f897057	1.0737408
5	0x3eb6f80c	0.3573612
6	0x3d5ce1e5	0.053926367
7	0x3f3d3d24	0.7392142

l2.weight f4 [8, 8]
0	0xbf15114b	-0.5822951
1	0x3fa6168e	1.2975633
2	0xbf70d582	-0.9407579
3	0x3f834a63	1.0257076
4	0x3fa627c3	1.2980884
5	0x3fb9fff6	1.4531238
6	0xbf602f15	-0.8757184
7	0xbd6f42f7	-0.058413472
8	0x3f883531	1.0641233
9	0x3fc70d01	1.5550843
10	0xbf8020ca	-1.0010006
11	0xbe8b5416	-0.2721259
12	0x3fa65a67	1.2996339
13	0xbf7d464d	-0.98935395
14	0xbf78320a	-0.96951354
15	0x3f7b1e89	0.9809347
16	0x3f4cb898	0.7996917
17	0x3b04203a	0.002016081
18	0x3f4ac922	0.79213154
19	0xc00d5db2	-2.2088437
20	0x3fc779d8	1.5584059
21	0xbf298b80	-0.66228485
22	0xbf0aacff	-0.5417022
23	0x3f4b25ce	0.7935456
24	0xbfcef6e3	-1.6169094
25	0x3f282a80	0.6568985
26	0x40068aed	2.1022294
27	0x3f27e0e9	0.6557756
28	0x3fb4a892	1.4113944
29	0xbff7e0b2	-1.9365447
30	0x3f36f1b9	0.7146259
31	0x3f09491f	0.536272
32	0x3fce1272	1.6099379
33	0x3fec3d1c	1.8456149
34	0x3ff0a70c	1.8800979
35	0x3f47fc1d	0.7811907
36	0xbf3c305c	-0.7351129
37	0x3eb5d8e7	0.35517046
38	0xbfbf68ac	-1.4953818
39	0x3f5daebb	0.8659474
40	0x3fd9b1c5	1.7007376
41	0xbf62dbce	-0.88616645
42	0x3fea99ff	1.8328246
43	0x3f5c1c34	0.85980535
44	0x3e3790ce	0.17926332
45	0x3f6a0048	0.9140668
46	0x3f85da26	1.0457199
47	0xbfb994f3	-1.4498581
48	0x3e8ed0bf	0.27893636
49	0xbfd57030	-1.6674862
50	0xbf7960f2	-0.9741355
51	0x3f811383	1.008408
52	0x3fb29a4c	1.3953338
53	0xbe949bb9	-0.29025057
54	0x3ffd6cb4	1.9798799
55	0x3fd2ce6c	1.6469245
56	0x3dd50d57	0.10402935
57	0xbebd89eb	-0.37019286
58	0x3f828357	1.0196332
59	0xc006b226	-2.1046233
60	0x3e87c90d	0.26520577
61	0x3fd1bdf3	1.6386093
62	0x3fae3916	1.3611171
63	0x3f9a2f5f	1.2045707

l2.bias f4 [8]
0	0x3f28ee68	0.6598878
1	0xbd8533ba	-0.06504007
2	0x3f0f7135	0.56032115
3	0x3f162440	0.58649063
4	0x3ec80edd	0.3907384
5	0x3cf49d84	0.029860266
6	0x3ece2970	0.4026599
7	0xbe046fc0	-0.12933254

l3.weight f4 [35, 8]
0	0xc07e0517	-3.9690607
1	0xc03a386a	-2.9096932
2	0xbd8837df	-0.066512816
3	0xc05246c1	-3.2855685
4	0xbf688422	-0.9082662
5	0x3ef29c3e	0.47384828
6	0xbfdc535d	-1.721294
7	0x3ea8c92f	0.3296599
8	0xbf935ae3	-1.1512111
9	0xbfc04b1a	-1.5022919
10	0x3fbd3c44	1.4784017
11	0x3f9165b3	1.1359161
12	0xbf568d37	-0.83809227
13	0xbf66491f	-0.89955324
14	0xc066a2ab	-3.6036785
15	0x3ebbb832	0.36663967
16	0x3f6f7b69	0.93547684
17	0x3e911184	0.28333676
18	0xbf804470	-1.0020885
19	0x3fb62b8f	1.4232043
20	0xc08bf537	-4.3736835
21	0xbfd3d0dc	-1.6548114
22	0x3f9d004b	1.2265714
23	0xc046fc15	-3.1091359
24	0x3f282676	0.65683687
25	0xbe65135c	-0.22370666
26	0x3f4569c2	0.771145
27	0xbfd26b12	-1.6438925
28	0x3cf844c5	0.03030623
29	0xc09f313b	-4.9747596
30	0xc099562f	-4.7917705
31	0x3ffc882b	1.9729055
32	0xbf86134c	-1.0474639
33	0xbf0afa8a	-0.5428854
34	0x3f8fd0d8	1.1235609
35	0xc056c2a5	-3.3556302
36	0xbfd7f851	-1.6872655
37	0x3e0cfbd5	0.13767941
38	0xbf151b12	-0.5824443
39	0xbe39d2e9	-0.18146862
40	0xc052bf64	-3.2929316
41	0x3f4aaa81	0.7916642
42	0x3fbca913	1.4739097
43	0xbc7bd943	-0.015371623
44	0xbfa38cbc	-1.2777324
45	0xbe1701ef	-0.14746831
46	0xbf0db422	-0.55352986
47	0xbf6d951f	-0.92805666
48	0xc06bd00c	-3.6845732
49	0x3dfface1	0.12484146
50	0x3f2062ee	0.62650955
51	0xbfa5b8a3	-1.2946972
52	0x3e6e8bc6	0.23295507
53	0xc006df18	-2.1073666
54	0xbf21d055	-0.63208514
55	0x3f1c3dd3	0.61031836
56	0x3ecb3942	0.39692122
57	0xc0945e95	-4.6365457
58	0xbf8d67b6	-1.1047275
59	0x3eafd5d7	0.34342834
60	0xc0059df3	-2.0877655
61	0x3e9daf4f	0.30797812
62	0xbfd6ffe4	-1.6796842
63	0x3e297bbc	0.16551107
64	0x3fa8c391	1.3184682
65	0x3e10031d	0.14063688
66	0xc068d494	-3.6379747
67	0xc01d625d	-2.4591286
68	0x3e6b1e00	0.22960663
69	0xc08356b4	-4.104334
70	0xbd698ab1	-0.057017032
71	0x3e9dcca4	0.3082019
72	0x3e626f9b	0.22112887
73	0x3f98d7c0	1.1940842
74	0xc00af626	-2.1712737
75	0xc09d7fa3	-4.9218307
76	0x3f2e5c4b	0.6810958
77	0x3dc46923	0.09590366
78	0xc07d9d64	-3.9627314
79	0xbe70baaa	-0.23508707
80	0x3e8e3ddb	0.27781567
81	0x3e0c766c	0.1371705
82	0x3e986fa1	0.29772666
83	0x3df98822	0.121841684
84	0x3ea24944	0.31696522
85	0xbe20cb29	-0.157025
86	0xbecbb460	-0.39786053
87	0xbfd3a22e	-1.6533868
88	0xbfd032b5	-1.6265475
89	0xc082a295	-4.0823464
90	0xc09ec0e2	-4.9610453
91	0xbfbe0331	-1.4844724
92	0xbee48213	-0.4463049
93	0x3f3622f1	0.71147066
94	0xbfb4d30f	-1.412691
95	0x3e5163e6	0.20448264
96	0xc04db6d8	-3.214285
97	0x3e47b982	0.1950436
98	0x3cc61f34	0.0241848
99	0x3d1bc748	0.038031846
100	0x3f193b7e	0.598564
101	0xbe2c29ff	-0.16812895
102	0xc061564d	-3.5208924
103	0xbf012c5e	-0.50458324
104	0xbf04c193	-0.5185787
105	0x3fd87059	1.6909286
106	0xc0439998	-3.0562496
107	0xc0a56aac	-5.1692715
108	0x3fb70d2c	1.4300895
109	0xbf876d87	-1.05803
110	0xbf3bef4e	-0.73412025
111	0xc01ed148	-2.4815235
112	0xbfda8d32	-1.7074339
113	0xc072a74d	-3.7914612
114	0xc031b6d1	-2.7767832
115	0x3fabb875	1.3415667
116	0xc066f613	-3.6087692
117	0x3f11b92c	0.56923175
118	0x3e380f92	0.1797469
119	0xbf64716a	-0.89235556
120	0xbe6471c0	-0.22309017
121	0xbf6a03af	-0.9141187
122	0xc088b08f	-4.2715526
123	0xbf075056	-0.5285696
124	0xba0cbf77	-0.00053691067
125	0x3ef979d0	0.48725748
126	0x3ed98bfd	0.42489615
127	0xc0327794	-2.7885485
128	0xc082127a	-4.0647554
129	0xbf5df93f	-0.86708444
130	0xc03f919f	-2.993263
131	0xc05e219e	-3.4708018
132	0xbf81bae1	-1.0135156
133	0x3ded45a0	0.115855455
134	0x3f564152	0.8369342
135	0x3ded6e85	0.115933456
136	0x3f840fa7	1.0317277
137	0xc0bc143a	-5.877469
138	0xbfa38a3d	-1.2776562
139	0xbfeeffef	-1.8671855
140	0x3fcd004e	1.6015718
141	0xbf0c57c8	-0.54821444
142	0xc013c7d5	-2.3090718
143	0xbfe0833b	-1.7540048
144	0x3ef49136	0.47767037
145	0xbf8716ae	-1.0553796
146	0xc0aeef4a	-5.46671
147	0xbf340074	-0.7031319
148	0xbe9bfd96	-0.30466908
149	0x3e16d086	0.14727983
150	0x3f093e95	0.5361112
151	0xbf910cc8	-1.1332026
152	0xc0145de6	-2.318231
153	0xc06eacd7	-3.7292993
154	0xbfb4ef2a	-1.4135487
155	0x3fde38a0	1.736103
156	0x3dbec5fb	0.093151055
157	0x3d330b5f	0.043712016
158	0xbfd635f7	-1.6735219
159	0xbfe203e1	-1.7657434
160	0xbfd1d3dc	-1.6392779
161	0xbd985041	-0.07437182
162	0xc0437928	-3.0542698
163	0xc0801290	-4.002266
164	0x3f238576	0.6387552
165	0xbf4ac2ae	-0.7920331
166	0xbf148da9	-0.58028656
167	0x3e41d05b	0.18927138
168	0xc0512cab	-3.2683513
169	0xc021b9ef	-2.5269735
170	0xc01567d9	-2.3344634
171	0xbd9e63de	-0.07733892
172	0x3e902ad2	0.2815767
173	0xbf2429ea	-0.64126456
174	0x3dcf2a78	0.10115522
175	0xbeabc5c5	-0.33549324
176	0xbf1dd13b	-0.61647385
177	0xbf9a0117	-1.2031583
178	0x3f1aa730	0.6041136
179	0xbe5588b4	-0.2085293
180	0xc04c1ab3	-3.1891296
181	0xbf3308f5	-0.6993554
182	0xbe210f85	-0.15728576
183	0x3e258ad2	0.16166237
184	0x3ec33dea	0.38133174
185	0x3f16b358	0.58867407
186	0x3ea007ab	0.3125585
187	0xc00e4b27	-2.223337
188	0xc0107e97	-2.2577264
189	0xc04b789d	-3.1792367
190	0x3f002d53	0.5006916
191	0x3f511d3e	0.81685245
192	0xc05468fe	-3.3189082
193	0xc096cdfc	-4.7126446
194	0x3ee1ff8e	0.44140285
195	0xbf84d628	-1.0377855
196	0xbff7b8a4	-1.9353223
197	0xbe873c42	-0.2641316
198	0x3cf7edc0	0.030264735
199	0x3e41a54e	0.18910715
200	0xbdea5d33	-0.114435576
201	0xbf521d94	-0.8207638
202	0xc06dd8e3	-3.7163627
203	0x3fc58c4f	1.5433444
204	0x3f912876	1.1340473
205	0xc069ecdc	-3.6550817
206	0xc0ca6a43	-6.3254714
207	0xbee5b27b	-0.44862732
208	0xbf115310	-0.5676737
209	0xc08f3b54	-4.475992
210	0xbf7f9078	-0.99829817
211	0xc0733088	-3.799837
212	0x3f073eee	0.528304
213	0x3f40632b	0.7515132
214	0xc09797cc	-4.73728
215	0xbe5905e9	-0.21193661
216	0xbd418173	-0.047242593
217	0x3d2c87f6	0.04212185
218	0x3efcc96d	0.49372426
219	0x3f2a86b7	0.6661181
220	0x3edb838e	0.42873806
221	0xc0008c7e	-2.008575
222	0x3e3f5567	0.18684922
223	0xbf998965	-1.1995054
224	0xbf9a2d5f	-1.2045096
225	0xc09c7c6f	-4.8901896
226	0xc010269c	-2.2523565
227	0xbfac898c	-1.3479476
228	0xbeb400a7	-0.35156748
229	0xc03fb7c5	-2.9955914
230	0x3f63d0de	0.8899058
231	0x3f5f6461	0.8726254
232	0xbf1458c3	-0.5794794
233	0xc04b86f9	-3.180113
234	0xc05e0849	-3.4692557
235	0xbe0f8632	-0.14016035
236	0x3db7adc3	0.08968689
237	0x3f00ecd6	0.5036138
238	0xc095d8e4	-4.682726
239	0xbc764588	-0.015031226
240	0xbfaee71b	-1.3664278
241	0x3e65773e	0.22408769
242	0x3e9ffaa7	0.3124592
243	0x3d1fd5ec	0.03902237
244	0xc08250ad	-4.072348
245	0xc0336559	-2.8030608
246	0x3ef8dae8	0.48604512
247	0x3dc139ed	0.094348766
248	0xc0353280	-2.8312073
249	0xc04d590c	-3.20856
250	0xbe0c168d	-0.13680477
251	0x3f526191	0.82180125
252	0xc01a866e	-2.414455
253	0xbed25ad7	-0.4108493
254	0xbea43813	-0.3207403
255	0xbd0e9dc5	-0.03481843

l3.bias f4 [35]
0	0xbe97bf15	-0.29637972
1	0xbfa95b2b	-1.3230947
2	0xbe5d3116	-0.21600756
3	0x3e00a89f	0.12564324
4	0xbf3235b1	-0.69613177
5	0xbf1dfe27	-0.6171593
6	0xbee5fb92	-0.44918495
7	0xbde01b15	-0.109426655
8	0xbfbdccf6	-1.4828174
9	0xbe912742	-0.28350264
10	0x3f3300da	0.69923174
11	0xbf06de43	-0.52682894
12	0xbf542596	-0.8286985
13	0xbf870a5a	-1.0550034
14	0xbeb7ee71	-0.35924104
15	0x3e514743	0.2043734
16	0xbc9e10de	-0.019295152
17	0xbf2361eb	-0.63821286
18	0xbce7faab	-0.02831777
19	0x3e196ebe	0.14983651
20	0xbef08808	-0.46978784
21	0xbfbe58fe	-1.4870908
22	0xbe59211d	-0.21204038
23	0xbf1cd273	-0.6125862
24	0xbf462ba3	-0.77410334
25	0xbfb5df62	-1.4208796
26	0x3da61a66	0.08110504
27	0x3e447ff2	0.19189432
28	0x3f3af6c5	0.7303279
29	0xbf89d91c	-1.0769382
30	0xbf504230	-0.81350994
31	0xbe52e53d	-0.2059526
32	0xbd8b3dc2	-0.06798889
33	0xbed6b52c	-0.41935098
34	0xbf8bfe1f	-1.0936927
