data.pth (torch, 9770 bytes, 6 tensors)

l1.weight f4 [8, 112]
00000000: 79e4 b93f 2303 0240 d1a9 3bbe c4c7 e4bd
00000010: 1d46 c8bd d22d 50be e0c3 963e b280 8cbf
00000020: 9be2 6340 4ff5 3940 0706 dc3f 9500 e7bf
00000030: 0768 fe3e 3535 30be 376d 6840 c949 523d
00000040: 116d 4abe eaf6 7abe 6940 9240 4b02 4a40
00000050: abc6 b7bf dce6 8c3e 9dec b93f 1f08 11c0
00000060: a0c0 c8be 96d5 febf 4cf6 3e3e 69c5 f2bf
00000070: b87c 423f 8398 ae3f aab4 6340 d644 a73e
00000080: 226f 1540 c893 56be a5f2 a43f 79bc 313f
00000090: 250b 0a40 1c64 8fbe d085 6b40 8c91 7740
000000a0: 8486 1d3f 2da0 1140 a7f9 1940 92f2 703f
000000b0: 4b75 783f c50e 9840 26c3 0540 c1fe 10bf
000000c0: 5be3 2540 d636 873e 60b4 d93d 06d0 01be
000000d0: 3654 083e 47b9 d93e 9acb 5ec0 9e3c c43e
000000e0: e02b 913b c23c 2a40 3488 ce3f 33d0 a83e
000000f0: c762 16bd 2f81 3040 5564 4ebe 9e4d 113e
00000100: 50e7 b63f 8b27 423f fa36 423f d5fc 38c0
00000110: f314 77be 7aeb d7bc 801c b13e 6d25 86bd
00000120: 816a 53be f00e 303b f96f e93f 6955 c4be
00000130: faeb c2be b6d2 e4be a214 e7be 0214 c8be
00000140: 5725 e4be 9985 2d40 d5b5 3140 9ec5 873d
00000150: fc24 883f 120f 8c40 3749 5cbf 8555 e4be
00000160: 9850 ae3f 5160 bb3f 603f 2fbf fe8d 8dbf
00000170: 5216 ba3e f4ef 52be 0a45 12c0 edf2 643f
00000180: 3fd5 5f3f 818f 0a3f 59dd e4be 6cc6 b03e
00000190: 7453 bf3f 4874 3d3f d04d 453e 9ddc 583d
000001a0: de20 2fbf f3c0 9a40 89b0 e3be 4867 c2be
000001b0: 587b 23be 058d ddbe 7d2a c7be ec53 853e
000001c0: ed77 9fbe e39a c63e b7bc 513d e1bc ec3e
000001d0: 2d7d f73e e1d6 efbb 337f 2440 2865 753f
000001e0: dc37 2340 d612 0840 f754 843e 39ac 83bf
000001f0: 9370 87bf 27d9 1dbd 0246 b240 07aa 7a3d
00000200: e976 9cbf e7ec 0bbc 69c3 763f cc84 1c40
00000210: b231 f4bf 0ed7 1d40 4a4d 8ebe 5d6c b1bf
00000220: f171 b83f 63c8 5a40 8f7a 68c0 0198 2f40
00000230: 3f33 7c3f 73b8 7cbf e3ce 3740 c69c 4d3f
00000240: 04ff 0240 9cf0 863c 10d1 2dbe 430a 0a3f
00000250: f750 0040 93cf 84bc 8416 2abf 93d9 0040
00000260: 05fa d0bf 7e4c 473d 2557 0440 86cb 913e
00000270: 61c7 7d3c 9edd 4440 8217 7ebb 34f6 57be
00000280: 38f6 3640 cbfc 59be 9324 3fc0 ea5f 8dbf
00000290: d475 f63e a005 a63e 77fa 0e40 9c03 1540
000002a0: e8b6 1c3f e24e 77bf a2ec 7f3f 848c 993e
000002b0: c30b ab3f 9bc1 8fbf ca99 a93f b414 6e40
000002c0: 66b7 1c3f 193f 843e dc7a 3ebf 3ab7 1ebf
000002d0: 3d57 033f eafb 1b3f ff64 9ebe 821e 663f
000002e0: 59f8 de3f 0264 a23f 9938 ac3f dcac 0440
000002f0: 52c8 0440 c695 983c 3a6b 44bd 8ba7 5cbd
00000300: e16a edbc d99e 8cbf 4f92 6dbf 87fb f43e
00000310: c8fa 0f40 315f 0240 024e 32c0 fc5a 3140
00000320: 9d2f f53e 2f89 9dbe 0cc5 74bd f8b3 6f3f
00000330: 9bf0 a53f afc8 e33e 99e2 b1bf 40ac 2e3f
00000340: bdf4 8640 18e0 833f fd71 3440 af11 52be
00000350: 61f7 3040 a032 41bf 2047 73bd d6d1 e63d
00000360: 351e 5b40 d74a fd3f 6e2e b03f 35cc ff3f
00000370: b847 6d3f 2c5f 3340 078a 9b3f 34ac a33c
00000380: 5657 a63f d4b4 a83f 8d14 753f db16 b5bd
00000390: 6d30 9cbe d3a3 7a3f a1b4 883f c5c7 7f40
000003a0: 291c 563e fd96 8440 b5cd 1a40 6219 a740
000003b0: 7373 cf3e e1f6 8f3f 41b7 a5bf 0d60 c13e
000003c0: ed13 363f abe6 873f 2460 ad40 a2d2 c140
000003d0: 8f33 9e40 9a3a 6e3f 2201 b33f 0b75 bdbf
000003e0: 8a85 5340 7953 5b40 0100 87be e290 e8bf
000003f0: 2b28 533d 69e6 9d3f f859 ba40 10e4 223e
1.4522849 2.0314415 -0.18326499 -0.11170915 -0.09778998 -0.20329979 0.29446316 -1.0976775
3.560706 2.9055974 1.7189339 -1.8047053 0.49688742 -0.17207797 3.631666 0.0513399
-0.19768168 -0.24508253 4.5703626 3.15639 -1.4357504 0.27519882 1.4525334 -2.2661207
-0.3920946 -1.9908931 0.18648642 -1.8966495 0.75971556 1.3640293 3.5579019 0.32669705
2.334908 -0.20954812 1.2886549 0.6942821 2.1569302 -0.28006065 3.6800423 3.8682585
0.6153338 2.2754014 2.4058626 0.9412013 0.97053975 4.751803 2.090036 -0.56638724
2.5920017 0.26409024 0.10630107 -0.12677011 0.13313374 0.42524168 -3.4811769 0.38327497
0.004430279 2.6599584 1.6135316 0.32971343 -0.036715295 2.7578847 -0.20155461 0.14189765
1.4289341 0.7584159 0.7586514 -2.8904316 -0.24129085 -0.026357401 0.34592056 -0.06550107
-0.20646097 0.0026864372 1.8237296 -0.38346413 -0.3807066 -0.4469201 -0.4513293 -0.39077765
-0.44559738 2.7112792 2.7767231 0.06629489 1.0636287 4.3768396 -0.86049217 -0.44596496
1.3618345 1.4638768 -0.6845608 -1.1058958 0.36345154 -0.20599347 -2.2854638 0.89433175
0.8743476 0.5412522 -0.44700125 0.34526384 1.4947343 0.74005556 0.19267964 0.05294477
-0.68409526 4.8360534 -0.44470623 -0.37969422 -0.1596502 -0.43271652 -0.38899603 0.2604059
-0.31146184 0.38790044 0.051205363 0.46237853 0.4833769 -0.0073193167 2.5702636 0.9585748
2.5502844 2.1261497 0.25846073 -1.0286933 -1.058123 -0.03853717 5.571046 0.061197307
-1.2223788 -0.008540369 0.9639192 2.4456053 -1.9077666 2.466251 -0.27793342 -1.3861195
1.4409772 3.4184806 -3.6324804 2.7436526 0.98515695 -0.9871895 2.8720024 0.8031734
2.046815 0.016472153 -0.16974282 0.5392191 2.0049417 -0.01621226 -0.66440606 2.0132797
-1.63263 0.048656933 2.0678189 0.2847559 0.01548943 3.0760264 -0.0038771336 -0.21090013
2.858778 -0.21287839 -2.9866073 -1.1044896 0.4813677 0.32426167 2.2340372 2.3283453
0.6121659 -0.9660474 0.9997045 0.29990017 1.3362964 -1.1230959 1.3250058 3.7200136
0.61217344 0.2582939 -0.7440622 -0.6199833 0.5130499 0.60931265 -0.3093643 0.898903
1.741954 1.268677 1.3454772 2.0730505 2.0747266 0.018626105 -0.04795382 -0.05387072
-0.028981628 -1.0985976 -0.92801374 0.4784815 2.2496815 2.03706 -2.7860112 2.7711782
0.4788789 -0.30768725 -0.05975823 0.93633986 1.2964052 0.44489047 -1.3897277 0.6823158
4.2173753 1.0302763 2.8194573 -0.20514558 2.7650988 -0.7546787 -0.059394002 0.11270492
3.4237187 1.9788464 1.3764169 1.9984194 0.9268756 2.8026838 1.2151498 0.019979574
1.2995403 1.3180184 0.95734483 -0.0884225 -0.30505696 0.97906226 1.0680124 3.996568
0.2090918 4.143431 2.4188054 5.2218485 0.40517768 1.1247216 -1.294655 0.37768593
0.71124154 1.0617269 5.417986 6.056962 4.943794 0.9305817 1.3984721 -1.4801344
3.3050256 3.4269698 -0.2636719 -1.8169215 0.05155198 1.2335941 5.8234825 0.15907311

l1.bias f4 [8]
00000000: 8a0a b03e 78cd 7c3f a83b 2c3f 1233 353f
00000010: 1d4d e83e 90bc eeba b88b 0a3f f8c2 983f
0.3438304 0.9875102 0.6727853 0.7078105 0.45371333 -0.0018214155 0.54119444 1.19345

l2.weight f4 [8, 8]
00000000: b38b e7bf b438 c43e d57c 8c3f 0973 3f3f
00000010: 3caa b33f 8aae e83f 6001 afbf cf24 97bf
00000020: 2ce5 413e 1049 81be 7c35 f23f cfdc 0cc0
00000030: 7718 9b3f f441 09c0 4110 dbbe 6fb7 ef3c
00000040: 0ba4 653f 1855 0740 f53d 383f 99ac 713d
00000050: d72a d13f e60d e93e 48c2 2440 3cbc a6bf
00000060: 02d9 5a3f 3e11 8e3f 96d7 81bf c9f9 2c3f
00000070: dba5 23bf e626 fc3f 13af 8fbf 6300 6e3e
00000080: 2977 93bf 7c01 36c0 61b4 5abd e589 da3f
00000090: 0213 933f 69aa 5a3f cb45 2dbe 601f 1f3f
000000a0: c3e7 96bd f2ba 963f 8b22 e7be 6c02 debf
000000b0: 57c4 05bf f81b 943f 81b7 c93e 3c25 c23f
000000c0: d809 c53f efa3 31be c29d 953e 820a 903f
000000d0: 49ca 20bf 250e 17bf cfaf aabf ffd9 1e40
000000e0: 4710 e3bf 998f fb3e 409c 583f 8616 aa3f
000000f0: 83e4 8ebf e7f2 a63f c7c6 3b3f e5dc 173e
-1.8089508 0.3832451 1.0975596 0.74784905 1.4036326 1.8178265 -1.3672295 -1.1808108
0.18935078 -0.25251055 1.8922572 -2.200977 1.2116841 -2.1446505 -0.42785838 0.029262273
0.89703435 2.1145687 0.7196954 0.059002493 1.6341199 0.45518416 2.574358 -1.3026195
0.8548738 1.1099012 -1.0143917 0.6756864 -0.6392495 1.9699371 -1.1225303 0.23242335
-1.152074 -2.8438406 -0.05339468 1.7073332 1.1490176 0.85416275 -0.16921155 0.6215725
-0.07368424 1.1775801 -0.45143542 -1.7344489 -0.52252716 1.1571035 0.39397815 1.5167613
1.5393629 -0.17347692 0.29221922 1.1253207 -0.6280866 -0.5900596 -1.3334903 2.4820554
-1.7739342 0.49132994 0.8461342 1.3288124 -1.1163486 1.3042878 0.73350185 0.14830358

l2.bias f4 [8]
00000000: 2024 53be 34c8 443e e023 6bbe c4df f03e
00000010: f494 213e 304a 363f 6913 073f a544 6f3f
-0.2061925 0.19216996 -0.22962904 0.4704572 0.15779477 0.7120695 0.5276399 0.9346412

l3.weight f4 [35, 8]
00000000: 376e e03e 31fd 88be 77e0 8dbf a07d 75c0
00000010: dff8 4cbf ef12 87c0 0d09 23c0 2c09 8b3e
00000020: cbd1 ccbf 7f32 353e 1f0c e5bf c6df 8dc0
00000030: 78a2 d73e 3ef4 97c0 3c1a dfbe 6558 ed3e
00000040: 8e2c 1d40 9847 89c0 7c8b e2bf b57b 1e3f
00000050: 8f02 aac0 2821 39bc 76a3 62c0 4616 18bf
00000060: ae3a a3c0 a784 fb3f fb72 95c0 23ae 21c0
00000070: 2e86 84c0 4136 873f 952e e7bd 1e58 b03d
00000080: e08d d0c0 1b1a 7dbf 0647 9dbf ec67 a0be
00000090: 7701 94c0 4584 863f 0b21 8ebe 14e5 63c0
000000a0: 002a 89c0 f605 38bf 1917 09bf 66e2 29c0
000000b0: 67de 3cc0 34f2 82c0 2fcf c33e 7f5a 5fbf
000000c0: 814f adc0 c976 713f 751c 46bd 1907 2bc0
000000d0: a34c e2c0 b587 1dc0 c6f2 44bf 9332 bebf
000000e0: b5fb 8dc0 5f1c b83e 2f1c 983e c23c b4c0
000000f0: 2dd0 a43f 5827 fdbf cb23 f0bf 65e7 773e
00000100: 94fd 6e3f 6ea9 65bf 8f68 4fbf f8e4 bcbe
00000110: 86c8 cdbf ac6c 02c0 f3f1 52c0 10df 7abf
00000120: 4046 ee3e c8ba 87c0 f520 903c 006b ca3e
00000130: 6cfd 7dbf e524 73c0 a1cf 1ac0 2890 18bf
00000140: 394a 26c0 3c5d 79bf d589 8cbe e8f2 c5be
00000150: c31d a73d a347 203e c2b4 48bf aa45 103f
00000160: 5622 4bc0 21eb 943e cf9e 9cbe a63b 94bf
00000170: dca3 5a3e e5c5 4ec0 3fdf 65bf a446 cdc0
00000180: 7f05 47c0 4cea 22bf a4b7 c3be 3892 b9c0
00000190: 7877 a3bf c864 0f3f f53a edbe 47dd abc0
000001a0: 6d01 63c0 2aef 09c0 5406 2b3f 9082 0bc0
000001b0: efb4 bd3f 4f84 b9c0 c2fb 88bf a4c5 e93d
000001c0: e7e8 b43f 0f25 38c0 7654 3ec0 0230 413f
000001d0: 1299 183d c43b afbf c377 2dc0 45fb 1ebd
000001e0: 85cb 03c1 9744 15c0 45ee 81c0 0e3c 2c3e
000001f0: 717d 15be 17b3 f23d d307 183f f5fa 613e
00000200: 9f5c a8c0 bcf6 bac0 01e8 51bf 7f49 eb3f
00000210: ae81 1ec0 1d37 603f de4e bebf 47e3 7cc0
00000220: 692e 31bf c594 40bd 21d6 a3c0 3eb1 6cbf
00000230: c43e bbc0 526a f23f 8dd5 b13e 888a 9fc0
00000240: 6ed7 cec0 35c6 c6c0 a7bb 89c0 d170 da3e
00000250: 9ace 1fbf a8f4 b83e 79f1 0d3f dd07 ba3e
00000260: 4ebe 23c0 45e9 753f cd71 42c0 465d 4cc0
00000270: 8378 1bbf 3784 39c0 49e5 be3e 2efe 82c0
00000280: d362 4d3f ab1c 46c0 c552 bbbf 1de1 d6bf
00000290: 4ad3 4e3f 0205 a1c0 e7bd bcbf 5bff ce3e
000002a0: 748a 6cc0 424c a6bf 85d6 2dbf 9b08 e2be
000002b0: c820 dfc0 915f bdbf fc30 b23e 2fb1 7bc0
000002c0: 1968 98bf 4d37 0d3f 20fc ffbe b0ed 34c0
000002d0: bd0b 6c3f 6eb1 1cc0 e55f 2ec0 2a28 62c0
000002e0: 83b0 ffbe 7697 443d 973c 22bf 1314 a4c0
000002f0: 1d24 23c0 7d4b 25bf c283 36c0 c024 f7be
00000300: c428 0a3e 36fe fbbf 49fa 1cbe c2c2 9bbf
00000310: 5db7 903e 28bb 87c0 1a18 1ec0 316f 7cbe
00000320: 277a a9c0 1195 a4c0 be03 193f a333 033f
00000330: ad33 59c0 46d2 61c0 32f5 33bf f176 e7bf
00000340: 96a1 8fc0 ab52 643f b25a babf e515 b0c0
00000350: ba5c 413f 4a84 a6be 01c7 31bf 5726 00bf
00000360: 5f8d d2bf e4a2 78bf da2a 93bf 2efd 70bd
00000370: a56c 2dbf cedc 01be 990b 3cbe 27f7 623f
00000380: 67f2 e8bf fb80 043e e329 163e e218 eabd
00000390: 3296 60c0 2cd8 c0bf 319f 3ec0 846d 3ec0
000003a0: 05a4 27c0 dec3 7abf 02a2 353f f317 a6bf
000003b0: 1b9c acbf 7e12 91c0 ac0f bebf d0ea a9bf
000003c0: 045c adc0 01ef d33e dbe3 513e 6230 b2c0
000003d0: e156 fdbf d669 96c0 87c2 49bf 53af 3ac0
000003e0: 4cd3 f4bf b148 873f 515d 1dc0 87e3 6ac0
000003f0: 1618 88c0 8b35 57bf edc0 cf3e 8ea7 8bc0
0.43834087 -0.2675567 -1.1084126 -3.8357925 -0.8006725 -4.221061 -2.5474274 0.27155435
-1.6001524 0.17695044 -1.7894324 -4.433566 0.4211614 -4.7485647 -0.43574703 0.46356502
2.4558444 -4.2899895 -1.7698817 0.6190751 -5.3128123 -0.011299409 -3.5412269 -0.59408987
-5.100913 1.9649857 -4.6702857 -2.5262535 -4.1413794 1.0563432 -0.11288182 0.08610557
-6.5173187 -0.9886796 -1.22873 -0.31329286 -4.625179 1.0509115 -0.27759585 -3.5608568
-4.286377 -0.71884096 -0.5355087 -2.6544433 -2.9510744 -4.092066 0.38244006 -0.8724746
-5.415955 0.94321877 -0.048366982 -2.6723082 -7.071855 -2.461408 -0.7693294 -1.4859184
-4.436976 0.35959145 0.29709002 -5.6324167 1.287603 -1.9777632 -1.8760923 0.24209364
0.9335568 -0.89711654 -0.8101892 -0.3689344 -1.607682 -2.0378828 -3.2960174 -0.97996616
0.46537971 -4.2415504 0.01759384 0.3953476 -0.99214816 -3.7991269 -2.4189227 -0.59594965
-2.5982802 -0.9740789 -0.27448907 -0.38661885 0.081599735 0.15652327 -0.78400815 0.563563
-3.1739707 0.2908564 -0.3058991 -1.1580703 0.2135157 -3.2308285 -0.8979377 -6.414873
-3.1097105 -0.6363876 -0.38226044 -5.799099 -1.2770834 0.56013155 -0.46334043 -5.3707614
-3.546962 -2.1552224 0.6680653 -2.179844 1.4820842 -5.797401 -1.070183 0.1141465
1.4133576 -2.8772619 -2.973905 0.7546388 0.037255354 -1.3690114 -2.7104347 -0.038813848
-8.237187 -2.3323114 -4.0603356 0.16819784 -0.14598633 0.11850565 0.5938694 0.22068389
-5.2613063 -5.842619 -0.81994635 1.8381804 -2.476665 0.87584096 -1.4867818 -3.951372
-0.6921144 -0.047016878 -5.119889 -0.9245795 -5.851412 1.8938696 0.3473324 -4.9856606
-6.4637976 -6.211695 -4.304157 0.42664197 -0.62424624 0.36124158 0.55446583 0.36334124
-2.5584903 0.96059066 -3.0381958 -3.193193 -0.6073076 -2.8986948 0.37284306 -4.093528
0.8022892 -3.0954998 -1.4634634 -1.6787449 0.8079115 -5.0318613 -1.4745454 0.40429196
-3.6959505 -1.2992022 -0.67905456 -0.4414719 -6.9727516 -1.479479 0.34802997 -3.9326894
-1.1906768 0.5516251 -0.49997044 -2.8270073 0.9220541 -2.4483294 -2.724603 -3.5337014
-0.49939355 0.047996007 -0.633737 -5.1274505 -2.5490792 -0.6456831 -2.8517919 -0.48270226
0.13492113 -1.9686954 -0.15329851 -1.216881 0.28264895 -4.241596 -2.470221 -0.24651791
-5.296161 -5.1431966 0.59771335 0.51250666 -3.393779 -3.528459 -0.70296013 -1.8083173
-4.488475 0.8918864 -1.4558928 -5.5026727 0.75532115 -0.32522804 -0.6944428 -0.500585
-1.6449393 -0.9712355 -1.1497452 -0.0588352 -0.67743903 -0.12681887 -0.18363799 0.88658375
-1.8198975 0.12939827 0.14664416 -0.11430527 -3.5091672 -1.506597 -2.9784663 -2.9754343
-2.619386 -0.9795512 0.7095033 -1.2976059 -1.348514 -4.5335073 -1.4848533 -1.3274784
-5.4174824 0.41393283 0.20497076 -5.568406 -1.9792138 -4.7004194 -0.7881245 -2.916951
-1.9126983 1.0569059 -2.4588206 -3.6701372 -4.25294 -0.84066075 0.40576878 -4.3642035

l3.bias f4 [35]
00000000: 131d e83d 7788 3c3e 7cb7 07bf edc5 90bf
00000010: e476 80c0 5210 23c0 ab12 a1bf c523 51bf
00000020: 8a1f 4cbf 9f38 90bf 705e 933e 6152 1cbe
00000030: 0e7e a1be f5d9 2bbf da0b 4bbf 72f3 41be
00000040: 5e57 14c0 f3cf cebf 051f 69bd b982 edbf
00000050: f61b b4be 89c6 28c0 69bc 64be 0cad 6cbe
00000060: a37e 3cbf bf4d 69c0 99b3 79bf 17fc ab3e
00000070: d5b6 7abf fbb6 90be d9c6 02bf 3bd3 8ebf
00000080: f614 e9be 71ea d5be 51a9 123e
0.113336705 0.18411432 -0.5301435 -1.1310402 -4.014513 -2.547871 -1.2583822 -0.81695205
-0.79735625 -1.1267279 0.28782988 -0.152658 -0.31541485 -0.6712945 -0.7931496 -0.18940523
-2.3178325 -1.6157211 -0.05691435 -1.8555518 -0.35177583 -2.6371176 -0.22337498 -0.23112887
-0.7363073 -3.6453702 -0.9753967 0.33590767 -0.9793523 -0.28264603 -0.5108467 -1.1158212
-0.45523804 -0.41780427 0.14322402
