data.pth (torch, 9770 bytes, 6 tensors)

l1.weight f4 [8, 112]
00000000: 04c2 b5bf 2197 263d b8be 3d3e f921 c83e
00000010: 182b 243f 55a6 083e a220 2340 c2e6 20bf
00000020: ddb6 4e3f 53a0 8c40 d746 8940 7160 2c40
00000030: 5a3d 10c0 53de 813e 2f6f 8b40 2395 b23e
00000040: b8de c8bf 00d5 013e af53 30c0 2a08 8b3f
00000050: 4701 0040 9452 2140 2a23 c2bf eff5 45bf
00000060: 73be 4840 f1c8 c7bf a2cd 26bf 5c53 6040
00000070: b28c 153e 54ac 91bf c7c2 a840 5ba1 25bd
00000080: 1cbb 7a40 6d17 683e d5b9 a93f 07e2 483f
00000090: 5c7a 7940 1659 fc3d c53c 5cc0 1da9 bc40
000000a0: 1278 f7be 5aaa 6abf 4927 7c40 e277 ef3a
000000b0: c55b 15be da4f 3c3f e7e4 8940 1cfc 14c0
000000c0: f2d0 0140 f788 e0bc 41b3 8abd 9334 4b3e
000000d0: 8319 24c0 783b 1e3f f5c0 8f40 1fa7 16c0
000000e0: 6134 42c0 c78c e1bf d4cf d13f 8964 013f
000000f0: 5a9a 84bf 41ff ebbf deba 89bf 1999 5b3d
00000100: d167 3bbf 6fa3 7c3f 26c1 fabe 5725 bdbf
00000110: 4a83 fabb 6a48 c73e 8fa8 9fbe 9803 c73f
00000120: 69b6 2040 1ffc 093e f3aa 4e40 a741 0c40
00000130: 85fc 0640 4677 cf3e b1a0 cd3e 6ae6 cd3e
00000140: ea17 a63e 7488 fbbf cd00 edbf d7e1 d83e
00000150: c1f5 78c0 95e1 733f d1aa 10c0 7332 2140
00000160: f42d 873f 8413 c0bf 1605 0cc0 7a5d 1dbf
00000170: 5dd7 803f ba80 6cbe 3501 4bbf 820d 793f
00000180: 2862 94be 1395 0d40 626b 2240 6b92 57bc
00000190: d18e d03f 72ef 1cbf 041c 42bb 5802 c23e
000001a0: dc32 bf40 f322 1d3e 6214 2440 b1d9 0740
000001b0: e2a3 633f cd68 2440 a041 3540 3bd9 57bc
000001c0: cb25 9e3f fc29 b6be 101b 6cbe 1b37 a13d
000001d0: df20 2d3e d5b0 2dbe c75c 0f40 6414 c4bf
000001e0: 9fbe 3f40 4fa6 323f 371c 39bf 055a 2e40
000001f0: 3efc b240 9fb1 77be e407 35c0 5f0e 9fbc
00000200: 10aa dbbf 9eb7 e6bd 23ce b33f a80b 8740
00000210: 3a50 2c40 5707 1040 3de1 ac3f 0da0 ffbe
00000220: 0380 c6be 0a99 09c0 8935 203e 4867 753f
00000230: b5c0 b03e 5af9 283f 317f 343f a458 1d3d
00000240: 55b2 113f a1c3 91be de10 29be 839f 4e3e
00000250: ef44 a73f 25f7 1ebe dade 3b40 95a0 c0be
00000260: 633c 1040 25ba 1c3f d36b f33e dd3e 3840
00000270: 52fb 4c40 73b0 9840 22b7 3dbf 6948 7540
00000280: 754d 8bbf 0348 febc 2973 bcbe 64a1 4c3f
00000290: b3f6 ab3f 94b7 bc3e a443 e9bf 415d 423f
000002a0: 9255 963e ff3b 49bf ec86 003d f39a d2bc
000002b0: a665 4e40 db61 4cbf 5245 4e40 ade6 503e
000002c0: 0759 e23b 3d89 143f 909c ddbd 5f30 aa40
000002d0: b25c 233d e3ec b93d a4c5 883e f13f 7ebd
000002e0: 9b30 2a3e e379 193e 498a 76bd 254e 1d3f
000002f0: b99a 073f ffc0 cabe eca1 c9be a6b3 c9be
00000300: ecdc cabe 57ae 47bf f08a 3cbf b06a 963b
00000310: 0a94 6240 0b0e 9040 2117 89bf d68f 0940
00000320: ad17 453e 9132 a13f f3f0 7a40 e2c8 bdbf
00000330: 3ba0 0840 adcd 7d3f a226 22bf 7180 5c3e
00000340: 2c70 8e40 75b2 c03f 699c 0f40 ba7f 06be
00000350: 45a5 97bf 318e 97be 5d8f 9a3b dbea 99bd
00000360: 5eb5 e63f a029 a840 af5c e03f 3165 1c3f
00000370: e860 39be e52c 0e40 6f0c d2bb eddd 4cbd
00000380: 6bd6 d23f f2d2 cebd c28a 823f e098 8abc
00000390: 358b c33b 7742 883f ed43 e13f 913e 0940
000003a0: d4bf 9440 1e08 c13e 4560 25be 1160 68bf
000003b0: 9929 3140 0188 883f 5fb1 993f 569a dd3e
000003c0: 50a5 ab3e 07c6 853f 0d5b c9be 75d6 c83f
000003d0: 6261 b23e dc00 db3f 6b0a dd3f 7632 4240
000003e0: dc64 4abe c534 dd3f 15ee dd3d e2d5 c2bf
000003f0: 3752 b33e 85ec 703f c883 de3e 60e4 89be
-1.4199834 0.04067147 0.18529785 0.3908842 0.64128256 0.133447 2.5488667 -0.6285211
0.8074778 4.394571 4.2898974 2.6933863 -2.2537446 0.25364932 4.357322 0.34879407
-1.5692968 0.1267891 -2.7551076 1.0861866 2.000078 2.5206652 -1.5166981 -0.7732839
3.136624 -1.5608197 -0.6515752 3.5050879 0.14604452 -1.1380715 5.2737765 -0.040437084
3.9176702 0.22665186 1.3259836 0.7846989 3.8980932 0.12321679 -3.441209 5.8956437
-0.48333794 -0.91666186 3.9398978 0.0018269981 -0.14585789 0.73559344 4.309192 -2.3278875
2.028378 -0.02740906 -0.06772471 0.19844274 -2.564057 0.6180949 4.4923043 -2.3539503
-3.034447 -1.7621087 1.6391549 0.5054403 -1.0359604 -1.8437272 -1.0760152 0.053612802
-0.73205286 0.9868688 -0.48975486 -1.477702 -0.0076450454 0.38922435 -0.31183288 1.5547972
2.5111334 0.13475083 3.229184 2.191507 2.1091626 0.40520686 0.4016166 0.40214854
0.3244012 -1.9651017 -1.8515869 0.42359802 -3.8899996 0.95266086 -2.2604258 2.5187042
1.0560899 -1.5005956 -2.1878104 -0.6147076 1.0065724 -0.2309598 -0.79298717 0.97286236
-0.28981137 2.2122238 2.5378041 -0.013157467 1.6293584 -0.61302865 -0.002961875 0.37892413
5.9749584 0.15345363 2.563744 2.1226618 0.8892194 2.5688965 2.8321304 -0.01317435
1.2355283 -0.35578907 -0.23057199 0.07871839 0.1690707 -0.16961987 2.2400377 -1.5318723
2.9960096 0.69785017 -0.7230868 2.7242444 5.5932913 -0.24188851 -2.8286066 -0.019416032
-1.7161274 -0.11265491 1.4047283 4.220173 2.6923966 2.250448 1.3506237 -0.49926797
-0.3876954 -2.1499658 0.15645422 0.9586072 0.34522024 0.6600548 0.7050658 0.038414612
0.5691274 -0.28469566 -0.1651034 0.20178036 1.3067912 -0.15523966 2.9354768 -0.37622514
2.2536857 0.61221534 0.475432 2.8788369 3.2028394 4.771539 -0.74107563 3.8325446
-1.0883013 -0.031040197 -0.3680661 0.7993376 1.3434662 0.3685881 -1.8223767 0.75923544
0.2936216 -0.7860717 0.03137867 -0.025708651 3.2249541 -0.79836816 3.222981 0.20400496
0.0069075855 0.5802191 -0.108208776 5.3184047 0.039883323 0.09078386 0.26713288 -0.062072698
0.16620104 0.14987902 -0.060190473 0.61447364 0.52970463 -0.3960037 -0.3938135 -0.39394873
-0.39621675 -0.78000396 -0.736495 0.004590355 3.5402856 4.501714 -1.0710183 2.149404
0.19247313 1.2593557 3.9209564 -1.482693 2.1347797 0.9914196 -0.633402 0.21533372
4.451193 1.5054461 2.2439215 -0.13134661 -1.1847311 -0.2960067 0.0047167973 -0.07515498
1.8024099 5.255081 1.7528285 0.61091906 -0.18103373 2.2214901 -0.0064101736 -0.050016332
1.6471685 -0.100988284 1.0198596 -0.0169186 0.0059675225 1.0645283 1.7598854 2.1444438
4.6484165 0.37701505 -0.16150005 -0.90771586 2.768164 1.0666505 1.2007254 0.4328181
0.3352456 1.0451058 -0.3932728 1.5690447 0.34839922 1.7109637 1.7268804 3.03433
-0.19765037 1.7281729 0.10836426 -1.5221522 0.35023662 0.941109 0.43459916 -0.2693205

l1.bias f4 [8]
00000000: 2534 b73f 3f23 bf3e 7a25 de3e fc1d 693f
00000010: 1919 533f f999 af3e 9a3e 5c3f ca80 8a3e
1.4312788 0.37331578 0.43387967 0.9106138 0.8246017 0.3429716 0.8603302 0.27051383

l2.weight f4 [8, 8]
00000000: fc56 f7bd f284 ff3f fc33 0a40 410c fcbe
00000010: 4e13 dfbf c12b f3bd e1e4 af3f a3c7 133f
00000020: 4fc1 c53f 9c09 b2bf c078 cf3e 4465 a43e
00000030: eb26 213f 0e26 ff3f 1556 5dbe e180 5bbe
00000040: ecd9 0c3d 4364 96be 50e6 8a3e 90f7 0d3f
00000050: 9336 c4bf 59fb eb3f 5b09 a3be d3f4 943f
00000060: 2a85 97be 19f0 a9be 38b7 563d 2a3b 39be
00000070: c880 87be 5460 4bbe 30e9 6a3d 34b6 8cbd
00000080: 163d 94be 2c77 aabd abd7 81bf 1478 05bf
00000090: efe1 033d 1d31 253f 1359 c13e 3090 583f
000000a0: 26fd 003f 9557 b6bf 49b7 01bf 83e6 1c40
000000b0: 4548 eabe 3d77 dfbf 2677 073d 6213 e13f
000000c0: b33a 0540 1b6b e43f fe9e b8be aed9 30bf
000000d0: d5d0 ec3f c9f9 abbf f9cb eb3f abaa 50bf
000000e0: f16f d1bf dbdf ccbe 5c4e f23f 8524 4d3f
000000f0: f964 f93f 6c21 893f 48d7 4d3e e86f ba3e
-0.12077138 1.9962447 2.1594229 -0.492281 -1.7427766 -0.1187358 1.3741723 0.57726496
1.5449618 -1.3909183 0.40521812 0.3210851 0.6295001 1.9933488 -0.21614869 -0.21435882
0.034387514 -0.2937337 0.2712884 0.55455875 -1.5329155 1.843608 -0.31843075 1.1637214
-0.29593784 -0.33190992 0.052420825 -0.18088976 -0.2646544 -0.19860965 0.05735129 -0.0687069
-0.28952855 -0.083235115 -1.0143942 -0.5213635 0.03219789 0.64528066 0.3776327 0.8459501
0.50386274 -1.4245478 -0.50670296 2.4515693 -0.45758262 -1.7458264 0.033072613 1.758404
2.0817077 1.7845186 -0.360588 -0.6908215 1.850123 -1.3435603 1.8421623 -0.8151042
-1.6362287 -0.40014538 1.8930163 0.8013385 1.948394 1.0713325 0.20101655 0.36413503

l2.bias f4 [8]
00000000: 9e67 bfbd 0356 363e 84f7 163f b561 2ebe
00000010: 9616 6bbf b51e 103f 91a6 793f a3de 15bd
-0.09345935 0.17806248 0.5897143 -0.1702946 -0.9183134 0.56296855 0.97519785 -0.036589276

l3.weight f4 [35, 8]
00000000: 87d7 92bf 4978 c83e 4229 a93e 15fa 803e
00000010: ae0a b1c0 06f8 283f feeb 65c0 b34d 5e3f
00000020: 2ed0 35c0 c4a0 54be 2f2a 26c0 90d6 823d
00000030: 3e14 d0be ca44 9fc0 d038 883e 7d3c 96c0
00000040: afcf ecc0 57ba 22bf 053e aac0 9057 91be
00000050: 2be8 8dc0 567b 7ebf af38 9f3f 75b9 cac0
00000060: c020 7dc0 e3a4 4a3f 4caa 9a39 8060 adbb
00000070: cec8 f1c0 e8ef 96c0 d70b 7a3e 49bd c6c0
00000080: 794d 47c0 e343 5e3f cf2b a63e c0d7 27bc
00000090: 08f5 c8c0 9331 f03c bc77 a8bf b393 a0c0
000000a0: bb61 44c0 96d5 523d 170a 99c0 b86d 3a3d
000000b0: eff1 84bf ff4c dbc0 85ef dcbe 23eb 593e
000000c0: fa40 cb3e 759a 51bf 7f8e 0ac0 4033 5e3d
000000d0: 274d 84c0 df8a 00c1 c320 38bd 104f 13c0
000000e0: 4c08 c8be fc8a 16bf b2a7 adc0 c401 9fbd
000000f0: 2b71 84c0 dc63 22c0 1608 893e 71dd b5c0
00000100: fcac bfc0 671e 823f 8c09 35bf 1219 92be
00000110: 8e05 19c0 e378 34c0 237b e6bf 38c7 7e3f
00000120: 5876 aec0 bfa2 d03e 5492 a0bf f697 183e
00000130: 74fe d43f 6530 80c0 7a82 19bf 65e6 e5bf
00000140: aa9f b3be a351 2ebe f248 ab3e ea4d 1d3e
00000150: 1f08 0dc1 c21c 233f 5c68 1abe 9b92 0dbf
00000160: 270c b1bd a735 49bf e06f b3c0 9124 77be
00000170: 7d0f b1c0 4711 59c0 e908 9bbe 74a8 0e3f
00000180: c556 b43e ebdd f1bf 8cbc 5ec0 68fb d2bd
00000190: 7a8f 32c0 e465 9abf 0693 51be 0706 cabf
000001a0: 1c80 b23f c3e0 c2bf 2b80 253f 908d 053e
000001b0: 09cc 49bd 673c 91c0 b94c 05c0 a4af 9ebf
000001c0: f7dc 453f 4b5a 09bf 1f32 ee3d 7063 d33c
000001d0: 9fcb 1fc0 3eec b13f 2030 80c0 ba80 5cbd
000001e0: 3d7c 12bf c28b 01be 00d3 81bd ac6e 8ebd
000001f0: 3c23 b9bd d281 c43e 23db 5ebf f545 903d
00000200: 4296 f1c0 d50b 933e ee3d 10bd b825 db3d
00000210: 9e24 6ebf 40fb 433f 4366 87c0 a40d d33f
00000220: 6d3c 6cbf 130c b7c0 a535 4dc0 a25a 283e
00000230: 45fe a13f 4015 85bd c9cb 70be 5700 6abe
00000240: 5de6 0cbf 615f 19bf f0ab 27be 1e3b 0d3e
00000250: 29f6 bfbd 7601 cb3e 0fcf 4fbf 93ff b73e
00000260: 971f bdbf 918e d9be c8af d3be 607f 093c
00000270: 3f1e 493f 8d95 01c0 5528 99c0 8fb5 f73f
00000280: d7f1 6dbd 27f7 53c0 c14a d6bf a31d 9e3e
00000290: b566 bc3f 0446 dec0 f503 a9bd 5599 fbbf
000002a0: 2e36 863e 1da6 63bf eede 083f f1be 9e3e
000002b0: 8e10 a3bf a095 e5c0 4707 1cbf 2481 88c0
000002c0: b30f 143f 8629 9fc0 8b43 3abf 51ff 0ebe
000002d0: 8d07 51c0 7a9c 7d3f 9dbe 55bf 676e 8fbf
000002e0: 90d5 ccc0 d00b 593c bef2 ebbd e237 593e
000002f0: dc4a d0bf 552c cc3f 51a9 11bf a631 c0c0
00000300: ebfd 62be 3c5e 6cc0 b341 f8be f00e 1abd
00000310: 45e3 ef3f 1000 8cbf c6e0 abbe 1e33 61c0
00000320: 7694 d7bf 1a08 e3bf 1e6b 0cc0 e40d b63d
00000330: 124c 0e40 59f6 a93e f501 023e 4b0a d1c0
00000340: 5e67 993e 3d24 3a3f ec0b 473e 4e20 97be
00000350: 39d0 bcc0 ef30 63c0 ce96 1ac0 2920 193f
00000360: c4fa edbf f530 96be ce66 563e 2fbe 71be
00000370: 55fc 22c1 80c0 433f 064a a3bd 4249 c03e
00000380: 5605 14c0 f95c 1cc0 6d44 adc0 fe40 8fbe
00000390: 8481 b93e 7073 d5bf 4fd0 133f d0f0 cbbf
000003a0: eda3 acc0 1123 623f 9cbb 28c0 3a39 7c3e
000003b0: cda1 85c0 2317 5ec0 a99a a1be f325 77bf
000003c0: 8f0f 9b3f e592 c9bf b5a3 493f 9ccb 0cbe
000003d0: e208 07c0 6a66 91c0 e62b 4dc0 23db ad3e
000003e0: c930 463f 7e9d 62bf df8f 37bd 1423 babd
000003f0: e54e a2be 4cdb 40bf a5c4 7dc0 f2a4 2d3f
-1.1472024 0.3915427 0.3303929 0.25190797 -5.5325537 0.66003454 -3.5925288 0.8683731
-2.8408313 -0.20764452 -2.5963247 0.06388581 -0.40640444 -4.977147 0.26605844 -4.694884
-7.400352 -0.6356558 -5.3200707 -0.28387117 -4.434591 -0.99406946 1.2439173 -6.335139
-3.955124 0.7915785 0.0002950005 -0.0052910447 -7.5557623 -4.7167854 0.24418579 -6.210606
-3.1141036 0.86822337 0.32455298 -0.01024431 -6.279911 0.029320514 -1.316154 -5.0180297
-3.068465 0.051473223 -4.7824817 0.045514792 -1.0386332 -6.853149 -0.4315149 0.21281104
0.3969801 -0.8187631 -2.1649473 0.054248095 -4.134418 -8.033904 -0.04495312 -2.3017006
-0.3906883 -0.58805823 -5.4267206 -0.07764009 -4.1388144 -2.537345 0.26763982 -5.6832814
-5.9898663 1.0165528 -0.7071769 -0.28534752 -2.390964 -2.8198783 -1.8006328 0.99522734
-5.4519463 0.40749165 -1.2544656 0.14901718 1.6640153 -4.0059075 -0.59964716 -1.7960936
-0.35082752 -0.1702333 0.3345409 0.15361753 -8.814483 0.63715756 -0.15078872 -0.5530183
-0.08644896 -0.7859749 -5.6074066 -0.24135043 -5.5331407 -3.3916795 -0.30280235 0.5572579
0.3522245 -1.8895849 -3.480258 -0.10301858 -2.790007 -1.2062345 -0.20466241 -1.5783089
1.3945346 -1.5224842 0.64648694 0.13042283 -0.04926685 -4.5386233 -2.0828078 -1.2397351
0.7729029 -0.536534 0.116306536 0.025804251 -2.496803 1.390022 -4.0058746 -0.0538337
-0.5722082 -0.1265097 -0.06339073 -0.06954703 -0.090399235 0.38380295 -0.87053126 0.07044593
-7.549592 0.28719965 -0.03521531 0.10700554 -0.93024623 0.7655525 -4.231233 1.6488538
-0.922797 -5.720224 -3.2063992 0.16440824 1.2655722 -0.06498194 -0.23515238 -0.22851692
-0.55039006 -0.5991116 -0.16374183 0.13792083 -0.09373123 0.39649552 -0.8117532 0.35937175
-1.4775265 -0.42491582 -0.41345048 0.008392185 0.78561777 -2.0247529 -4.7861733 1.9352282
-0.058091965 -3.31196 -1.6741563 0.30881986 1.4718844 -6.946047 -0.08252708 -1.9656168
0.2621321 -0.88925344 0.53465164 0.31005052 -1.2739427 -7.174515 -0.60948604 -4.265764
0.57836455 -4.973819 -0.7275931 -0.13964583 -3.2660859 0.9906689 -0.8349398 -1.1205567
-6.4010696 0.013247445 -0.11520909 0.21212724 -1.6272845 1.5951029 -0.5689898 -6.0060606
-0.22167175 -3.6932516 -0.48487625 -0.0376119 1.8741232 -1.0937519 -0.33569926 -3.518745
-1.6842182 -1.7736847 -2.194038 0.08889368 2.223393 0.3319576 0.12696059 -6.5325065
0.29961675 0.72711545 0.19438142 -0.29516834 -5.900418 -3.5498617 -2.4154544 0.598147
-1.8592153 -0.29334226 0.20937654 -0.23607706 -10.1866045 0.76465607 -0.07973103 0.3755589
-2.3128257 -2.4431746 -5.4146028 -0.27979273 0.36231625 -1.6675854 0.5773973 -1.5932865
-5.3950105 0.8833476 -2.6364508 0.24631205 -4.176001 -3.4701622 -0.3156331 -0.9654228
1.2114123 -1.5747954 0.7876542 -0.13749546 -2.1099172 -4.5437517 -3.2058043 0.3395625
0.7741819 -0.88521564 -0.04481494 -0.09088722 -0.31700817 -0.7533462 -3.9651272 0.6782981

l3.bias f4 [35]
00000000: 7a2e a4be f3c8 4bbd b7aa 26bf d412 403f
00000010: ec6b c8bf 1a77 11c0 5f8e 41bf 62bf 98be
00000020: a80a 9ebf 9f68 2dc0 3b72 273f cf73 ddbf
00000030: a864 ccbf 0bff 30c0 b101 30bf 2ebe 0d3e
00000040: b90e 8dbf c805 a9bf 20b1 61be 8fd1 0ebf
00000050: b093 3ec0 ebc9 00bf 16fc 75bf 1cbd 19c0
00000060: dfd7 aabf 69f2 e7bf dc03 e5bf 9001 da3e
00000070: c282 c9bf 98d1 f1bf d605 91bf 0152 1fbf
00000080: fa2d 30c0 4d8c 38c0 880f 84bf
-0.3206671 -0.049752187 -0.6510424 0.7502873 -1.5657935 -2.2728944 -0.75607866 -0.29833513
-1.2347002 -2.7095106 0.65408677 -1.7300967 -1.5968218 -2.7655666 -0.6875258 0.13842079
-1.1020118 -1.3204889 -0.22040224 -0.5578851 -2.9777641 -0.503081 -0.9608778 -2.4021673
-1.3347129 -1.8120853 -1.7891803 0.42579317 -1.5743029 -1.8892088 -1.1329906 -0.62234503
-2.7528062 -2.8835633 -1.031724
